DNSMOS/sig.onnx (onnx, 742203 bytes, 19 tensors)

mos_estimator_sig_v1/dense_5/MatMul/ReadVariableOp/resource:0 f4 [64, 1]
0.057526827 0.26637918 -0.026135897 0.0023268724 0.07421939 0.13724945 -0.13795814 0.19751556
-0.2223197 -0.14192083 0.007296382 -0.15040581 0.19118807 0.0736241 0.047021642 0.22550677
0.25511757 0.010056606 -0.01602364 -0.36365125 -0.101340495 0.265145 -0.033062927 -0.08916413
0.04260843 -0.26993275 -0.10058421 -0.12916131 0.15392311 -0.037759207 0.14078091 0.06268124
-0.091941 0.0050811814 0.08436027 -0.045431208 -0.118838474 -0.023283653 0.009071034 -0.006755293
0.11687082 -0.0915053 -0.18618585 -0.16624781 -0.0020213788 -0.10336333 -0.03138037 -0.22641999
-0.11679023 0.1309214 0.053608797 0.11515619 -0.052350298 0.012907593 0.047244996 0.17837034
0.28549674 -0.005363054 -0.2607097 -0.15866396 0.30709946 0.10392143 -0.12625168 0.011845414
00000000: 40a1 6b3d da62 883e f31a d6bc 717e 183b
00000010: 5600 983d 1f8b 0c3e e644 0dbe 8541 4a3e
00000020: c7a7 63be b253 11be 7d16 ef3b fb03 1abe
00000030: cec6 433e 3bc8 963d c499 403d 3feb 663e
00000040: c59e 823e 76c4 243c 0244 83bc 7f30 babe
00000050: 9b8b cfbd 16c1 873e fe6c 07bd af9b b6bd
00000060: 2d86 2e3d a034 8abe 18ff cdbd dd42 04be
00000070: 059e 1d3e 66a9 1abd df28 103e 065f 803d
00000080: 904b bcbd 0a80 a63b 14c5 ac3d 1316 3abd
00000090: 9661 f3bd 5cbd bebc ad9e 143c 815b ddbb
000000a0: f859 ef3d 2167 bbbd 81a7 3ebe de3c 2abe
000000b0: 1c79 04bb 27b0 d3bd b488 00bd a4da 67be
000000c0: b72f efbd 4210 063e e694 5b3d 02d7 eb3d
000000d0: 446d 56bd 5e7a 533c f883 413d b7a6 363e
000000e0: a12c 923e 8fbc afbb be7b 85be ce78 22be
000000f0: 243c 9d3e c2d4 d43d 1f48 01be 4413 423c

mos_estimator_sig_v1/dense_4/BiasAdd/ReadVariableOp/resource:0 f4 [64]
0.07111329 -0.030537233 -0.091228954 0.18008035 -0.03173003 -0.031722467 -0.0129220765 0.3152298
-0.075845964 -0.044679433 0.14724386 -0.08613362 0.30727848 0.28339213 0.2854881 0.31563643
-0.05553707 -0.15190193 -0.15203597 -0.49183747 -0.039356787 0.31616464 -0.03767343 -0.013535249
0.27358913 -0.50744355 -0.28809312 -0.0804124 0.18744935 -0.03208778 -0.07646126 0.11522958
-0.07567039 0.024232032 -0.06341019 -0.050119895 -0.554821 -0.09216319 0.042626366 -0.053932395
0.30127153 -0.10100047 -0.055767402 -0.07694462 -0.03446154 -0.022309002 -0.1152733 -0.014161264
-0.059094965 0.30453485 0.27379295 0.30126867 -0.029107688 -0.022415377 -0.071841516 0.310948
0.31680068 -0.07042452 -0.06040347 -0.49657091 0.31942186 0.29700142 -0.03534457 -0.060151853
00000000: d8a3 913d 3829 fabc 3fd6 babd fc66 383e
00000010: 59f7 01bd 6bef 01bd 1eb7 53bc cd65 a13e
00000020: 2155 9bbd c801 37bd 18c7 163e d366 b0bd
00000030: 9b53 9d3e c618 913e 7f2b 923e 199b a13e
00000040: d77a 63bd 2e8c 1bbe 51af 1bbe 1fd2 fbbe
00000050: 9534 21bd 55e0 a13e 744f 1abd f3c2 5dbc
00000060: e013 8c3e d2e7 01bf f180 93be 42af a4bd
00000070: b9f2 3f3e 7a6e 03bd b997 9cbd 7cfd eb3d
00000080: 14f9 9abd 4182 c63c 34dd 81bd 854a 4dbd
00000090: c008 0ebf 0ec0 bcbd fc98 2e3d 37e8 5cbd
000000a0: 4340 9a3e 56d9 cebd 5c6c 64bd 2495 9dbd
000000b0: 8b27 0dbd 5ec1 b6bc 6814 ecbd a504 68bc
000000c0: 900d 72bd feeb 9b3e 972e 8c3e e33f 9a3e
000000d0: 3f73 eebc 74a0 b7bc a521 93bd 9434 9f3e
000000e0: b333 a23e bb3a 90bd a169 77bd 8b3e febe
000000f0: 438b a33e 9210 983e 78c5 10bd ca61 76bd

mos_estimator_sig_v1/dense_4/MatMul/ReadVariableOp/resource:0 f4 [128, 64]
0.046432387 -0.13238662 -0.099202484 -0.076757945 0.17218573 -0.082885236 -0.17217214 -0.015309367
0.070654854 0.15001078 -0.012183946 -0.07099447 -0.11944058 0.0027333468 -0.15827478 -0.11121524
0.05542703 0.13533415 -0.014441189 0.11068409 0.153584 0.062390566 -0.030493846 0.017130185
-0.04389439 -0.07485849 -0.012417288 -0.14296958 0.13773437 -0.059853874 -0.17048228 -0.09895422
0.09562944 0.077278204 0.02823633 -0.10527648 -0.0022824656 0.14255166 0.119771615 0.14629306
-0.0798446 0.15737082 0.16904916 -0.14534189 0.0330057 0.069717884 -0.055250783 -0.13000977
0.14841889 -0.013610109 0.02946852 0.10668273 -0.07626906 0.106667385 0.15306474 -0.15436815
-0.07399112 -0.074845955 -0.056305036 0.096542306 0.08830235 -0.097468644 -0.08529574 0.044028495
0.1275704 0.14448313 -0.049937956 -0.10365411 0.062438875 -0.01637578 0.026822597 -0.14457798
0.16410461 -0.036666706 0.013787173 -0.080896914 0.043116506 0.046298575 0.032309484 0.078388885
-0.1564392 0.064598635 0.03006978 -0.0077456404 0.024584591 0.10724322 -0.09588366 0.15381925
0.06753131 0.099588364 -0.05939073 0.07487798 0.12523337 0.15636037 0.09435849 -0.07387895
-0.04649046 0.11557878 0.14931782 -0.15233856 -0.17476842 -0.011266649 0.16066231 -0.11353307
0.12976518 0.09326361 -0.07098591 0.14950354 -0.15721609 0.035614967 0.027876653 -0.10993057
0.07097158 0.098096944 -0.04510928 0.12911288 -0.09520728 0.097968414 0.13258441 0.12935287
0.09583591 -0.09556359 0.14863382 -0.009966457 -0.15748101 -0.1265475 -0.043725923 0.19353405
0.16789699 0.14815359 -0.04392807 0.11361997 -0.036719725 0.031084016 -0.067729264 0.1186017
0.05694767 0.13711572 -0.10388974 -0.028204633 -0.15388638 -0.026628416 0.111807145 0.058558863
-0.11525365 -0.12900455 -0.056841422 -0.15239982 -0.17396596 -0.0059236954 -0.110357866 0.12495946
0.008906359 -0.11762921 -0.1681147 0.034289926 -0.16849597 -0.10315032 -0.15319237 0.13923815
-0.13622056 0.021543989 0.061047807 -0.09720467 0.03214167 0.1349805 0.15771772 -0.1346882
-0.04754611 -0.08051467 -0.09008361 0.021556884 -0.016972695 -0.047561113 -0.061013434 0.069986686
0.11031682 -0.16021137 -0.064732805 0.13118747 0.07029161 -0.080479175 -0.14563918 -0.022911701
-0.15816003 -0.03633066 -0.08568979 0.07842649 -0.07244675 0.13146836 -0.01358515 0.11476974
-0.014063782 -0.03778477 0.05897011 0.13809063 0.003370732 0.16515343 0.09569817 -0.096970506
-0.004752904 0.046067942 0.1384428 -0.08983032 -0.027495198 -0.13232914 -0.047488533 -0.0018647991
0.104265064 -0.20459637 -0.11477511 -0.09473564 0.029338524 -0.07592236 0.021683678 -0.06020257
-0.13155958 -0.09747985 -0.17091124 0.0768628 -0.13326775 -0.13012339 0.0011982322 0.16566123
-0.12662569 0.10337757 0.10796333 0.098558605 0.029294996 0.1420246 0.11305784 0.0075094257
-0.014254431 -0.14767875 -0.17487647 -0.00082717836 -0.14803305 0.016523287 -0.12577085 0.13166209
0.053516284 0.11833856 -0.10951915 0.06988419 -0.073227875 -0.083143555 -0.06944464 0.057876673
-0.013427417 0.053868324 0.17030162 -0.033067264 -0.08680699 0.08749226 0.0961502 -0.17345837
00000000: e32f 3e3d 5c90 07be ac2a cbbd 4533 9dbd
00000010: 7551 303e bcbf a9bd e54d 30be 24d4 7abc
00000020: 7eb3 903d 6d9c 193e 2c9f 47bc 8c65 91bd
00000030: 439d f4bd f321 333b c912 22be d1c4 e3bd
00000040: 7407 633d 0995 0a3e bd9a 6cbc 57ae e23d
00000050: 2045 1d3e 408d 7f3d 3bce f9bc 9a54 8c3c
00000060: 9bca 33bd 684f 99bd e171 4bbc 9e66 12be
00000070: 3d0a 0d3e 5629 75bd e892 2ebe 83a8 cabd
00000080: 5ed9 c33d 0944 9e3d e04f e73c 329b d7bd
00000090: 6b95 15bb 10f9 113e d24a f53d d9cd 153e
000000a0: 9185 a3bd d125 213e 391b 2d3e 81d4 14be
000000b0: fc30 073d 40c8 8e3d a54e 62bd 4821 05be
000000c0: 1ffb 173e effc 5ebc f767 f13c 7a7c da3d
000000d0: f432 9cbd 6e74 da3d 01bd 1c3e af12 1ebe
000000e0: a888 97bd d648 99bd 1ca0 66bd f9b7 c53d
000000f0: ddd7 b43d a49d c7bd 88af aebd 3957 343d
00000100: d1a1 023e 63f3 133e be8b 4cbd 9b48 d4bd
00000110: e8bf 7f3d 8026 86bc 10bb db3c 400c 14be
00000120: 0a0b 283e d42f 16bd 98e3 613c 48ad a5bd
00000130: ef9a 303d 93a3 3d3d f356 043d 5a8a a03d
00000140: 9931 20be 4a4c 843d e654 f63c 24cf fdbb
00000150: a065 c93c 55a2 db3d a75e c4bd cb82 1d3e
00000160: db4d 8a3d fcf4 cb3d b243 73bd a059 993d
00000170: 2d3d 003e ef1c 203e 063f c13d d94d 97bd
00000180: c86c 3ebd 91b4 ec3d c5e6 183e a4fe 1bbe
00000190: 7ef6 32be c097 38bc a984 243e 0784 e8bd
000001a0: 2ae1 043e fe00 bf3d 1061 91bd 7517 193e
000001b0: 41fd 20be 00e1 113d 945d e43c 4723 e1bd
000001c0: 8c59 913d 0de7 c83d 82c4 38bd 2b36 043e
000001d0: 09fc c2bd aaa3 c83d 35c4 073e 1475 043e
000001e0: 9e45 c43d d8b6 c3bd 7733 183e 5a4a 23bc
000001f0: b442 21be ab95 01be f419 33bd ca2d 463e
00000200: 30ed 2b3e 93b5 173e eced 33bd 96b1 e83d
00000210: 6c67 16bd e8a3 fe3c a4b5 8abd 73e5 f23d
00000220: f641 693d 1068 0c3e 25c4 d4bd 670d e7bc
00000230: 6494 1dbe d623 dabc 25fb e43d 6bdb 6f3d
00000240: 1b0a ecbd c519 04be 8dd2 68bd b30e 1cbe
00000250: 2224 32be 8f1b c2bb 4e03 e2bd bfea ff3d
00000260: faeb 113c 95e7 f0bd 4326 2cbe 9873 0c3d
00000270: 358a 2cbe 7a40 d3bd 76de 1cbe 7294 0e3e
00000280: 677d 0bbe 057d b03c 440d 7a3d 3e13 c7bd
00000290: fca6 033d 5438 0a3e c180 213e b4eb 09be
000002a0: b6bf 42bd e0e4 a4bd c17d b8bd 1098 b03c
000002b0: 520a 8bbc 71cf 42bd 39e9 79bd 2e55 8f3d
000002c0: c9ed e13d 730e 24be a292 84bd 0256 063e
000002d0: 0cf5 8f3d 44d2 a4bd 7022 15be 52b1 bbbc
000002e0: b4f4 21be 75cf 14bd 217e afbd 119e a03d
000002f0: f65e 94bd a49f 063e 4094 5ebc 660c eb3d
00000300: c76b 66bc 34c4 1abd a48a 713d a167 0d3e
00000310: 80e7 5c3b fb1d 293e 67fd c33d 7998 c6bd
00000320: 40be 9bbb bdb1 3c3d f3c3 0d3e f5f8 b7bd
00000330: 9c3d e1bc 4a81 07be 5683 42bd 466c f4ba
00000340: ec88 d53d b681 51be 360f ebbd c204 c2bd
00000350: 5857 f03c 2f7d 9bbd f8a1 b13c f896 76bd
00000360: 8eb7 06be 84a3 c7bd 5b03 2fbe 3e6a 9d3d
00000370: 5777 08be 113f 05be 000e 9d3a 19a3 293e
00000380: 2aaa 01be 9fb7 d33d e11b dd3d 18d9 c93d
00000390: 0ffc ef3c e66e 113e de8a e73d a111 f63b
000003a0: 6b8b 69bc 1939 17be d112 33be 00d7 58ba
000003b0: fa95 17be d85b 873c 13ca 00be 6dd2 063e
000003c0: e433 5b3d 7d5b f23d 934b e0bd 711f 8f3d
000003d0: 7ff8 95bd 2b47 aabd fe38 8ebd 1710 6d3d
000003e0: abfe 5bbc 08a5 5c3d 8c63 2e3e 8a71 07bd
000003f0: ddc7 b1bd 242f b33d 65ea c43d 129f 31be

mos_estimator_sig_v1/dense_3/BiasAdd/ReadVariableOp/resource:0 f4 [128]
-0.00886697 -0.033539113 0.015913252 -0.038330108 0.17115821 -0.037850384 -0.05367103 -0.32391042
0.09775664 -0.076326035 -0.07200314 0.20023213 -0.036460362 0.013597062 -0.02235227 -0.10017026
-0.028474623 -0.07060376 -0.037580345 0.14580844 -0.02475789 -0.055724926 -0.045049172 -0.12729079
-0.04987043 -0.1297649 -0.030963248 -0.031731587 -0.06181632 -0.01945161 -0.03103236 0.13656172
-0.03162198 -0.08115105 -0.06019387 0.061757486 0.26478404 -0.021640373 -0.029312268 0.25177628
0.27106503 -0.02350479 -0.053192567 0.15096378 -0.04670605 0.23932377 0.22783817 0.0
0.24103108 0.29261497 -0.05289596 -0.033050444 -0.031041527 0.032549582 -0.029883893 0.0
-0.05323815 0.01669208 -0.045289427 0.14185408 0.017895944 -0.021799171 0.25440267 0.012539395
0.1142778 0.14743285 0.29372293 -0.13275969 -0.0734663 -0.09996587 -0.07480755 -0.048605695
0.21660289 0.21044093 -0.029618617 0.014948739 -0.061323326 -0.037444018 -0.058004133 -0.010306422
0.13461423 -0.03108812 -0.10756056 0.15507874 -0.078078456 -0.06344548 -0.01130529 -0.05433595
-0.04861944 0.04559061 -0.03134105 -0.032007724 0.006655894 0.13529497 0.050445125 -0.10343388
0.108893946 0.04042151 0.007865637 -0.043159537 -0.5261101 -0.026351027 -0.017997824 0.026858918
-0.081501596 -0.07423368 -0.046309914 0.054948382 -0.09123129 -0.13257642 0.0052233962 -0.18093348
-0.02920771 -0.15893732 -0.026396185 0.20879999 -0.013785958 -0.04426647 -0.03670176 -0.081984185
-0.006853698 0.2936965 -0.002396961 -0.09339118 -0.056093726 -0.07174662 0.15955025 0.019043636
00000000: c546 11bc 4f60 09bd 825c 823c 0800 1dbd
00000010: 1944 2f3e 0109 1bbd 27d6 5bbd 96d7 a5be
00000020: a234 c83d d350 9cbd 6276 93bd a709 4d3e
00000030: 7657 15bd 36c6 5e3c 1c1c b7bc 1126 cdbd
00000040: 9d43 e9bc b498 90bd d9ed 19bd cf4e 153e
00000050: 0fd1 cabc d23f 64bd 7b85 38bd 8458 02be
00000060: f044 4cbd 17e1 04be a3a6 fdbc fbf8 01bd
00000070: 1c33 7dbd fc58 9fbc 9337 febc d6d6 0b3e
00000080: 0d86 01bd 8632 a6bd d98d 76bd 6bf5 7c3d
00000090: c691 873e 2747 b1bc 4820 f0bc d2e8 803e
000000a0: 09c9 8a3e 1e8d c0bc 73e0 59bd 4096 1a3e
000000b0: d84e 3fbd 4a11 753e 694e 693e 0000 0000
000000c0: dad0 763e a1d1 953e 6fa9 58bd e75f 07bd
000000d0: cd4a febc b652 053d 11cf f4bc 0000 0000
000000e0: 3f10 5abd d4bd 883c 6881 39bd 3242 113e
000000f0: 849a 923c 2d94 b2bc 1141 823e 0972 4d3c
00000100: 7b0a ea3d a3f8 163e da62 963e 28f2 07be
00000110: 8075 96bd e8ba ccbd b334 99bd c416 47bd
00000120: 26cd 5d3e d47d 573e bea2 f2bc 8eeb 743c
00000130: 2b2e 7bbd e65e 19bd be95 6dbd 44dc 28bc
00000140: 50d8 093e 83ac febc b648 dcbd f6cc 1e3e
00000150: 99e7 9fbd b4ef 81bd d339 39bc 608f 5ebd
00000160: 2e25 47bd 38bd 3a3d 795f 00bd 881a 03bd
00000170: b019 da3b c48a 0a3e 8c9f 4e3d 24d5 d3bd
00000180: ca03 df3d 0691 253d dfde 003c 0ec8 30bd
00000190: 27af 06bf 1cde d7bc 2c70 93bc 3c07 dc3c
000001a0: 4fea a6bd d407 98bd 77af 3dbd 8e11 613d
000001b0: 78d7 babd 1dc2 07be 0629 ab3b a046 39be
000001c0: 0245 efbc 77c0 22be d03c d8bc aacf 553e
000001d0: 80de 61bc c250 35bd 9654 16bd 53e7 a7bd
000001e0: fc94 e0bb 635f 963e 5516 1dbb e043 bfbd
000001f0: 89c2 65bd e4ef 92bd 2461 233e 6601 9c3c

conv2d_13/kernel:0 f4 [64, 32, 3, 3]
-0.23484816 0.14658614 0.087066524 -0.23959951 0.11165024 0.0337244 -0.11749908 -0.512143
-0.18951109 -0.13527998 0.03318827 0.052484345 -0.016543064 -0.16756944 0.0116103925 0.028784957
0.12673666 0.05033997 -0.13261332 -0.26590246 -0.083034486 -0.12773202 0.029506577 0.102636084
-0.12985906 -0.009866499 -0.022304932 -0.006901756 0.03146563 0.0800993 0.025790941 -0.072459176
-0.10018144 0.076953754 0.07156608 -0.13174045 -0.16366453 0.0015073037 -0.087637454 -0.19385949
0.053539284 -0.1119992 -0.18911353 -0.18879771 -0.1723262 -0.1381183 -0.17339925 -0.10567587
-0.09367549 0.084269226 0.099881254 -0.04946274 -0.004231014 0.029954847 -0.19276729 -0.10205811
-0.07191917 -0.15925495 -0.045968283 0.024768827 -0.07865044 -0.06399763 -0.1062853 -0.27358216
0.004285503 0.10495736 -0.21912056 -0.023694178 -0.2046885 -0.1500904 -0.23239084 -0.29640314
-0.30209687 0.10013436 0.041865107 -0.20109048 0.13078147 -0.004339102 -0.08896448 -0.0961289
-0.07627802 -0.19070587 -0.057862233 0.12934352 -0.23441918 -0.03241607 -0.17358628 -0.2097051
-0.11604552 0.08228094 -0.04972793 -0.16790986 -0.12530752 -0.13236791 0.01895221 0.05315545
-0.022588043 0.012880897 -0.0016353766 -0.058820043 0.019905617 -0.094534375 -0.15032758 -0.3151581
-0.103209205 -0.087970205 -0.029945962 -0.120580375 -0.020532079 -0.114564694 -0.028912999 0.042295065
0.09620145 0.06989794 0.06093871 0.04314884 0.029384114 -0.04172104 -0.03465263 0.106917694
0.07361169 -0.06819891 -0.17824864 -0.15384986 -0.28375673 -0.22115864 -0.01979108 -0.0906791
0.016347237 -0.19833481 -0.055621613 -0.1431544 -0.13679843 0.10508651 0.014215145 -0.12899868
-0.15890767 0.05175061 -0.20407768 0.17467742 0.17582117 -0.34793106 0.13662168 0.012149312
0.07721916 0.18936348 0.04336856 0.09706906 -0.08937499 0.07684142 -0.037512556 -0.27975735
0.034417465 -0.080045365 -0.051101122 -0.22229421 0.01736223 0.043027826 -0.105855145 -0.23310769
-0.15925722 -0.037083846 -0.29154754 -0.060048204 0.059335165 -0.36393875 0.10283529 0.009174899
-0.27997318 -0.030617485 -0.14055078 -0.14101605 -0.11306831 -0.08546954 -0.31302765 0.075611785
0.042429097 -0.0018823621 0.055747442 -0.038897995 -0.09960864 0.100562625 -0.17300774 -0.12858951
0.023364352 -0.22051291 -0.10333936 -0.10255263 0.044813078 -0.20609799 0.15199704 0.105250075
-0.08754329 -0.012852859 -0.10023175 0.0058645085 -0.24111435 -0.17786387 -0.00750478 -0.1002789
-0.22638202 -0.118334904 -0.29240835 -0.01435448 -0.0899158 0.08996238 -0.110763796 0.009924241
0.022502003 -0.34647128 -0.06676736 -0.11764405 -0.18499598 -0.08773461 0.012936667 0.016122114
-0.07645945 -0.16406237 0.075615756 -0.0628769 0.0230416 -0.11560059 -0.1581651 -0.10950498
0.13538459 0.06063294 -0.05769927 -0.010993585 -0.0018812168 0.031166803 -0.14174926 -0.1302501
0.027551083 -0.16723518 -0.27639043 0.0167447 -0.032102138 -0.09737327 -0.1898046 0.07690057
-0.16496001 -0.07387476 -0.11274122 -0.26921538 -0.11997543 -0.12930056 -0.20595951 0.012432813
0.08198331 -0.2619603 0.03649883 0.041674145 -0.18331628 0.059403997 -0.14320573 -0.21180561
00000000: 097c 70be ad1a 163e ef4f b23d 9359 75be
00000010: e2a8 e43d 9922 0a3d 5ca3 f0bd ce1b 03bf
00000020: 320f 42be d686 0abe 6cf0 073d d3f9 563d
00000030: 5285 87bc 5397 2bbe 8439 3e3c 6ece eb3c
00000040: 41c7 013e 4931 4e3d c9cb 07be 5e24 88be
00000050: fc0d aabd 2fcc 02be c7b7 f13c de32 d23d
00000060: c6f9 04be 19a7 21bc d5b8 b6bc 2028 e2bb
00000070: 1be2 003d 1a0b a43d 8647 d33c 7a65 94bd
00000080: ed2b cdbd ee99 9d3d 3d91 923d f8e6 06be
00000090: ad97 27be b890 c53a 447b b3bd 1a83 46be
000000a0: 024c 5b3d d65f e5bd faa6 41be 3054 41be
000000b0: 4876 30be e26e 0dbe 938f 31be 976c d8bd
000000c0: efd8 bfbd 5895 ac3d 8b8e cc3d 7199 4abd
000000d0: 51a4 8abb de63 f53c ca64 45be d803 d1bd
000000e0: 5c4a 93bd bb13 23be 3d49 3cbd ffe7 ca3c
000000f0: 7b13 a1bd 3011 83bd 1bac d9bd f612 8cbe
00000100: 686d 8c3b e2f3 d63d 2461 60be 4b1a c2bc
00000110: dd99 51be 4cb1 19be ddf7 6dbe 27c2 97be
00000120: 71ac 9abe 3e13 cd3d bf7a 2b3d aaea 4dbe
00000130: 94eb 053e 072f 8ebb 0233 b6bd 3bdf c4bd
00000140: a737 9cbd 6648 43be f300 6dbd a172 043e
00000150: 950b 70be b7c6 04bd 9ac0 31be efbc 56be
00000160: 46a9 edbd e982 a83d 84af 4bbd 90f0 2bbe
00000170: 9d50 00be 748b 07be aa41 9b3c 87b9 593d
00000180: 8f0a b9bc 660a 533c 225a d6ba 49ed 70bd
00000190: 1b11 a33c 3d9b c1bd 79ef 19be 675c a1be
000001a0: 595f d3bd b929 b4bd 3c51 f5bc d8f2 f6bd
000001b0: e432 a8bc e5a0 eabd f4da ecbc 973d 2d3d
000001c0: 4405 c53d a726 8f3d de9a 793d d7bc 303d
000001d0: f4b6 f03c aee3 2abd ebef 0dbd aaf7 da3d
000001e0: bac1 963d dfab 8bbd d086 36be d18a 1dbe
000001f0: 9048 91be 6977 62be e720 a2bc f7b5 b9bd
00000200: a4ea 853c 4818 4bbe 7dd3 63bd 1197 12be
00000210: e314 0cbe 9937 d73d a4e6 683c 3b18 04be
00000220: b1b8 22be 73f8 533d bdf9 50be a3de 323e
00000230: 770a 343e 0524 b2be 8ee6 0b3e e80d 473c
00000240: 1425 9e3d 80e8 413e 3ba3 313d 25cc c63d
00000250: 3c0a b7bd 095f 9d3d c4a6 19bd 5b3c 8fbe
00000260: 54f9 0c3d d3ee a3bd 694f 51bd 18a1 63be
00000270: 3c3b 8e3c f23d 303d 95ca d8bd c8b3 6ebe
00000280: 5314 23be 3be5 17bd b845 95be 1bf5 75bd
00000290: 6e09 733d 2e56 babe 4f9b d23d 5152 163c
000002a0: a558 8fbe 85d1 fabc 8bec 0fbe 8366 10be
000002b0: 5c90 e7bd a70a afbd 2945 a0be 5ada 9a3d
000002c0: 22ca 2d3d 97b9 f6ba 6e57 643d 8153 1fbd
000002d0: 9dff cbbd c7f3 cd3d f128 31be f8ac 03be
000002e0: 9966 bf3c 23ce 61be 96a3 d3bd 1d07 d2bd
000002f0: eb8d 373d 5a0b 53be 1da5 1b3e 5a8d d73d
00000300: e549 b3bd cc94 52bc 4e46 cdbd 102b c03b
00000310: aee6 76be f221 36be a8ea f5bb 065f cdbd
00000320: b0d0 67be 9259 f2bd 8cb6 95be 0e2f 6bbc
00000330: c625 b8bd 323e b83d 21d8 e2bd 4999 223c
00000340: 1f56 b83c af64 b1be 53bd 88bd 5def f0bd
00000350: 966f 3dbe 34ae b3bd 50f4 533c 8612 843c
00000360: c696 9cbd f7ff 27be 6fdc 9a3d 9bc5 80bd
00000370: bdc1 bc3c 01c0 ecbd 08f6 21be 2644 e0bd
00000380: 42a2 0a3e 3f5a 783d 1256 6cbd 701e 34bc
00000390: 2993 f6ba 8651 ff3c b826 11be 4860 05be
000003a0: cfb2 e13c b33f 2bbe 0c83 8dbe 2e2c 893c
000003b0: 887d 03bd a36b c7bd 235c 42be 0c7e 9d3d
000003c0: 47eb 28be a64b 97bd dee4 e6bd 99d6 89be
000003d0: aeb5 f5bd 5e67 04be 0de7 52be ffb2 4b3c
000003e0: dee6 a73d a91f 86be cc7f 153d 82b2 2a3d
000003f0: 43b7 3bbe 9b51 733d 86a4 12be 92e3 58be

conv2d_13/bias:0 f4 [64]
0.025266942 0.15189765 0.21543087 0.09017288 0.08006911 0.12028295 0.057529785 0.0928172
0.26089337 0.17590909 -0.17476417 0.1570469 -0.09733821 0.21437271 0.20746714 0.08109124
-0.07329254 0.20392011 0.09952302 0.030367972 0.13645738 0.1370924 0.032649264 -0.10992723
-0.20445803 0.08309995 -0.28093585 0.2508801 -0.046161797 0.2087918 0.10199288 0.022003673
-0.036694475 0.03705454 0.12107966 0.0032730447 -0.10863085 0.12686649 0.16365878 -0.20392583
-0.1691371 0.027608542 -0.09634236 0.10066664 -0.05815503 -0.007659772 0.10219135 0.21127748
0.09562788 -0.044799075 0.2016073 -0.114312135 -0.0048067523 0.059278432 0.08579204 -0.09850152
-0.0081538 -0.0021874662 0.14020857 -0.18515794 -0.018992139 0.030948065 0.08400289 0.055162117
00000000: 9efc ce3c 0f8b 1b3e e999 5c3e 8fac b83d
00000010: 46fb a33d e856 f63d 5aa4 6b3d f216 be3d
00000020: d193 853e 8321 343e 61f5 32be e7d0 203e
00000030: 4159 c7bd 8584 5b3e 4472 543e 2a13 a63d
00000040: 661a 96bd 6fd0 503e bad2 cb3d 41c6 f83c
00000050: 7cbb 0b3e f361 0c3e 3cbb 053d 8721 e1bd
00000060: 725d 51be 4e30 aa3d d3d6 8fbe 5b73 803e
00000070: 2714 3dbd 85cd 553e a5e1 d03d 0c41 b43c
00000080: f24c 16bd 80c6 173d 9df8 f73d 9480 563b
00000090: da79 debd 4ae9 013e 2b96 273e efd1 50be
000000a0: 4732 2dbe 4f2b e23c 254f c5bd 502a ce3d
000000b0: f833 6ebd d3fe fabb b349 d13d 2059 583e
000000c0: 8dd8 c33d 3c7f 37bd 2572 4e3e 7b1c eabd
000000d0: f681 9dbb f1cd 723d bdb3 af3d 2abb c9bd
000000e0: 8497 05bc 985b 0fbb d692 0f3e 0b9a 3dbe
000000f0: 6795 9bbc cc86 fd3c b509 ac3d acf1 613d

mos_estimator_sig_v1/dense_3/MatMul/ReadVariableOp/resource:0 f4 [64, 128]
0.16255528 -0.03522937 0.12966582 -0.16289063 -0.17737393 0.100392975 -0.006244102 0.094691224
-0.0036438652 0.0048970073 -0.15900956 -0.17079747 -0.14126365 0.0045204894 -0.15978497 0.07086795
-0.14973278 -0.07325173 -0.078634165 0.13106215 -0.21858102 -3.8176837e-05 -0.039931566 -0.04678075
-0.21701133 0.114930466 -0.1420789 0.0039043336 0.026479125 0.069002315 -0.18439673 0.15511903
-0.15385158 0.07211476 -0.009930342 -0.04316043 0.08235623 -0.0010502004 -0.10135259 0.010578886
0.0032147572 -0.12607975 -0.015892345 0.19635242 0.092831776 0.07428683 0.14611326 0.021578044
-0.15336439 0.045470808 0.02634496 0.07918682 -0.11801084 0.13274972 -0.02303419 -0.023195729
-0.19679832 -0.0063208076 0.0407608 -0.041440804 -0.3223134 -0.032449182 -0.07987523 -0.195167
0.010956582 -0.17243329 -0.18179624 0.11076835 0.014381714 -0.14706512 -0.1101641 -0.12615673
-0.088442996 0.108334586 0.050949518 -0.09699082 0.12081549 -0.18623863 -0.105982184 0.14889924
-0.18753687 -0.036190894 -0.13623567 0.094954476 -0.0041609793 -0.17954755 0.046188198 -0.14529255
-0.14789952 0.13793774 0.055827886 0.0720949 -0.07383084 -0.1102348 0.0032483372 -0.038704067
-0.16102564 -0.2128128 -0.11628372 -0.12439348 0.15648687 0.13937655 -0.0030204076 -0.03043041
-0.03621624 -0.04517825 -0.07184842 -0.110448666 0.030001435 0.0048389635 0.022235502 -0.06503767
-0.0014954619 0.072047144 0.13318929 0.12247763 -0.121980526 -0.06860328 0.13046628 -0.12502645
-0.016841765 0.052982263 -0.105080135 -0.112504356 -0.050721303 0.0639337 -0.08248001 -0.18803065
0.00015513567 -0.13827218 -0.1445249 0.03903751 0.10917293 -0.102801375 -0.022085832 -0.23922744
-0.1269267 0.09273714 -0.15531625 -0.15083319 -0.034597524 0.033352565 -0.056343645 0.052418265
-0.0634567 -0.17653222 0.118240125 0.1299517 0.068059504 -0.120737076 0.008034836 0.001334866
-0.06539449 -0.033045128 0.04550176 0.09627367 0.108305 -0.11905578 0.03583271 -0.15341546
-0.14867479 -0.10584245 -0.056182195 0.07990488 -0.01319519 -0.019013906 -0.1303408 -0.038901906
0.0031494235 -0.13260268 -0.014261807 -0.17391725 -0.14062257 -0.035991855 0.102558464 -0.0065030456
-0.00120594 -0.088414624 -0.022676056 -0.15212259 -0.019542102 -0.005642074 -0.17286678 -0.07369056
-0.06279021 -0.08615885 -0.021521563 0.022203416 -0.027096039 0.053208143 0.07423062 -0.0065652756
0.15309502 0.104287 0.016901791 -0.19154671 0.08076426 -0.05258973 0.13844797 -0.045884836
-0.026027374 -0.13622098 -0.04933173 0.0212045 -0.022588538 -0.12771785 -0.18219264 0.106368214
0.10579163 -0.16488867 0.06457405 0.09140537 0.07467294 -0.08323104 -0.13379575 -0.17948349
-0.1177998 -0.1493242 0.105529174 -0.11365638 -0.17246638 -0.03373466 -0.097801484 -0.21035752
0.11209172 0.2408558 0.09811705 0.0018854198 -0.099926434 -0.08915912 0.14608924 -0.124044366
-0.08474179 0.008915333 0.010440138 0.17065613 0.012091941 0.079236016 0.286553 -0.15701233
-0.11587226 0.058126505 -0.031368405 -0.045370176 -0.11542687 -0.2067407 -0.15469931 -0.20039271
-0.023024144 0.026389373 -0.068804994 0.10578507 -0.039448593 0.006041391 -0.0003461976 -0.058146838
00000000: e474 263e ac4c 10bd 1ec7 043e cdcc 26be
00000010: 83a1 35be d59a cd3d 539b ccbb 79ed c13d
00000020: eacd 6ebb 1377 a03b 67d3 22be 88e5 2ebe
00000030: 6ba7 10be 9d20 943b ac9e 23be 3723 913d
00000040: 8d53 19be 0105 96bd f30a a1bd 2835 063e
00000050: b4d3 5fbe 1120 20b8 488f 23bd 2c9d 3fbd
00000060: 3838 5ebe aa60 eb3d 227d 11be d9df 7f3b
00000070: c0ea d83c 1651 8d3d 7fd2 3cbe 86d7 1e3e
00000080: 458b 1dbe e7b0 933d e0b2 22bc fec8 30bd
00000090: 62aa a83d e1a6 89ba f291 cfbd 1053 2d3c
000000a0: adae 523b 0d1b 01be aa30 82bc 9c10 493e
000000b0: 961e be3d b223 983d b79e 153e 70c4 b03c
000000c0: 8e0b 1dbe 993f 3a3d 63d1 d73c b32c a23d
000000d0: abaf f1bd 8bef 073e 33b2 bcbc f804 bebc
000000e0: 8085 49be c71e cfbb ccf4 263d d5bd 29bd
000000f0: 4306 a5be 6fe9 04bd a095 a3bd dcd9 47be
00000100: 3c83 333c 5a92 30be cb28 3abe 84da e23d
00000110: 48a1 6b3c 3d98 16be b79d e1bd 3b2f 01be
00000120: 9a21 b5bd 86de dd3d 71b0 503d 1fa3 c6bd
00000130: 1d6e f73d 57b5 3ebe 300d d9bd 0b79 183e
00000140: aa09 40be e73c 14bd 5d81 0bbe 7e77 c23d
00000150: d358 88bb 50db 37be d62f 3d3d 92c7 14be
00000160: f972 17be 8d3f 0d3e c8ab 643d 7ea6 933d
00000170: a034 97bd c8c2 e1bd 0ee2 543b 2888 1ebd
00000180: e8e3 24be 99eb 59be 2926 eebd 02c2 febd
00000190: 183e 203e bab8 0e3e 08f2 45bb 3249 f9bc
000001a0: 7b57 14bd d40c 39bd 4425 93bd e932 e2bd
000001b0: 92c5 f53c 2b90 9e3b 3a27 b63c 7832 85bd
000001c0: 6003 c4ba 748d 933d c662 083e 8dd5 fa3d
000001d0: edd0 f9bd e07f 8cbd f498 053e ef06 00be
000001e0: bef7 89bc ee03 593d 4134 d7bd af68 e6bd
000001f0: 24c1 4fbd acef 823d 48eb a8bd 1b8b 40be
00000200: eaab 2239 3997 0dbe 56fe 13be cce5 1f3d
00000210: 0f96 df3d 8789 d2bd 59ed b4bc 0af8 74be
00000220: 13f9 01be f8ec bd3d 390b 1fbe 0474 1abe
00000230: 22b6 0dbd b39c 083d 98c8 66bd 89b4 563d
00000240: 96f5 81bd ddc4 34be e127 f23d 0f12 053e
00000250: c862 8b3d 0045 f7bd 8ba4 033c acf6 ae3a
00000260: 8ced 85bd 545a 07bd 0e60 3a3d 212b c53d
00000270: 03cf dd3d 84d3 f3bd 52c5 123d f118 1dbe
00000280: 343e 18be edc3 d8bd 4d1f 66bd 2ba5 a33d
00000290: a330 58bc 0dc3 9bbc 0f78 05be 9b57 1fbd
000002a0: 8f66 4e3b ffc8 07be 5baa 69bc 5d17 32be
000002b0: 5dff 0fbe 326c 13bd 2c0a d23d 8017 d5bb
000002c0: a210 9eba ba12 b5bd 23c3 b9bc 06c6 1bbe
000002d0: c216 a0bc 26e1 b8bb fd03 31be 14eb 96bd
000002e0: 2798 80bd 0d74 b0bd fd4d b0bc f0e3 b53c
000002f0: 83f8 ddbc c8f0 593d 3906 983d 8621 d7bb
00000300: f1c4 1c3e 6c94 d53d a075 8a3c d224 44be
00000310: bb67 a53d 5468 57bd 4ec5 0d3e bdf1 3bbd
00000320: 5c37 d5bc 837d 0bbe 1110 4abd 0fb5 ad3c
00000330: 990b b9bc 78c8 02be b590 3abe 94d7 d93d
00000340: 48a9 d83d 93d8 28be 663f 843d bd32 bb3d
00000350: 20ee 983d 0975 aabd c101 09be 85ca 37be
00000360: 0641 f1bd 71e8 18be ae1f d83d adc4 e8bd
00000370: 079b 30be 5b2d 0abd 254c c8bd f667 57be
00000380: 5890 e53d e7a2 763e 98f1 c83d 3120 f73a
00000390: 3ba6 ccbd 0f99 b6bd 6b98 153e f90a febd
000003a0: 1b8d adbd 9e11 123c 1d0d 2b3c 7bc0 2e3e
000003b0: 471d 463c 7e46 a23d 13b7 923e d7c7 20be
000003c0: 6f4e edbd 0f16 6e3d 287c 00bd 14d6 39bd
000003d0: ec64 ecbd d6b3 53be 7f69 1ebe bf33 4dbe
000003e0: 219d bcbc 872e d83c a2e9 8cbd d8a5 d83d
000003f0: d994 21bd dcf6 c53b db81 b5b9 612b 6ebd

conv2d_12/kernel:0 f4 [32, 32, 3, 3]
0.02541569 -0.13825986 -0.0012401394 0.16654675 0.05846699 0.077535056 0.03470333 0.055585153
-0.011585943 -0.012418536 0.052686844 -0.0019473485 0.02287855 -0.15652812 -0.027580852 -0.055395182
0.0051501333 -0.10554892 -0.06298863 -0.043827698 -0.078679584 0.119316 -0.10155184 0.18820083
-0.075586446 -0.07742446 -0.032387797 -0.06839498 0.030374652 -0.12624952 -0.0035093555 -0.1596371
-0.12840521 -0.0057589067 0.0071331 -0.24767575 -0.017546233 -0.040412858 0.06785977 -0.18614732
-0.1440968 -0.04565375 -0.116966225 0.050632734 -0.22811693 -0.0005660319 0.065744996 -0.042711068
0.0856142 -0.009139809 -0.060637113 0.06033302 0.10930827 -0.055576667 0.1700971 -0.03000685
0.17935464 -0.09086445 -0.12111539 -0.08833176 -0.2603589 -0.15724126 -0.11411689 -0.02716066
-0.22285049 -0.013004045 -0.21765849 -0.17978299 -0.014116639 -0.1068986 -0.118458495 0.041850746
-0.1606812 0.0039426708 0.08817167 -0.013173595 -0.15010674 0.12301583 -0.057437126 0.034747854
0.015964223 0.060246285 0.03954494 0.06737043 -0.0020348867 -0.02995625 -0.082964316 -0.0034675254
-0.08771899 -0.00379836 -0.11346548 -0.28064376 0.12640867 0.09360917 0.13781562 0.03919873
-0.10656488 -0.17142393 -0.073570184 -0.06506213 -0.22162566 0.052419398 0.031476356 0.06320118
-0.028779577 -0.07899852 0.044673495 -0.04919336 0.13878416 0.01624897 -0.003271624 0.07209853
-0.07473912 -0.026285399 -0.041915044 0.07288211 -0.037670843 -0.077646956 -0.087211005 0.096667245
-0.09033502 -0.18789944 0.13210553 0.15434939 0.00035607774 0.052274093 -0.13370328 0.01605158
-0.10528518 -0.1316302 -0.2635938 -0.22595416 -0.23474035 -0.31337348 -0.23990357 -0.044598997
-0.22967297 -0.22177486 -0.09728538 -0.15396711 -0.33828175 0.069459856 -0.009665587 -0.16085127
0.21756575 -0.05554732 -0.12127281 -0.08358036 -0.0021022002 -0.09173989 -0.16298085 -0.14121337
-0.22704877 0.052813537 0.1302238 0.034518216 0.08056124 -0.0029280484 -0.040014204 0.058543596
-0.014794153 0.11328321 -0.06542508 0.037791315 0.06575082 0.13387246 0.14019136 9.7792115e-05
-0.092700005 -0.17678945 0.03141441 0.10067013 -0.049246375 0.0218239 -0.0698812 -0.13735396
-0.068454415 -0.1206206 -0.12799221 -0.06046191 0.0066987667 -0.16411208 -0.12614144 0.019131642
-0.15633644 -0.026005993 -0.077004 0.032930173 0.26395857 -0.0074696434 0.16846432 -0.06559473
-0.012725245 0.070751496 0.03721235 0.120680846 -0.08187541 -0.0011960582 0.12902957 -0.0035286346
-0.022256486 -0.01224447 -0.12451207 0.09863102 0.015971517 -0.08717533 -0.07015235 0.021547467
-0.08486006 -0.06698628 0.03248032 -0.20234023 -0.06078991 0.06840355 0.05524168 0.02183479
-0.07163796 -0.1282964 0.005249311 -0.29889977 -0.07408667 -0.04002041 -0.034153193 -0.075743236
-0.30072606 -0.15468791 -0.07761746 -0.030339727 -0.07004759 0.091810584 0.037628166 0.1305687
0.08557144 0.18173403 -0.20567197 -0.23301056 -0.22692207 -0.14187309 -0.2061283 -0.24387653
-0.08065356 -0.108777195 -0.28929287 0.36766735 -0.067465246 -0.055366673 -0.044364467 0.0143854
-0.2817606 0.105087675 0.0031020474 -0.10691762 -0.03663538 0.017768936 0.1815266 0.016008466
00000000: 9134 d03c fe93 0dbe 2c8c a2ba 3b8b 2a3e
00000010: 157b 6f3d b3ca 9e3d 1425 0e3d 42ad 633d
00000020: f8d2 3dbc 1d77 4bbc 29ce 573d 2c3e ffba
00000030: cc6b bb3c e848 20be 3df1 e1bc 0fe6 62bd
00000040: 73c2 a83b 082a d8bd 2f00 81bd ac84 33bd
00000050: c322 a1bd f25b f43d 69fa cfbd b8b7 403e
00000060: 11cd 9abd b790 9ebd 11a9 04bd ab12 8cbd
00000070: 43d4 f83c 8e47 01be 37fd 65bb e877 23be
00000080: a87c 03be 36b5 bcbb c8bc e93b b69e 7dbe
00000090: 1ebd 8fbc f487 25bd 10fa 8a3d 679d 3ebe
000000a0: 1d8e 13be 6dff 3abd fd8b efbd 4564 4f3d
000000b0: 7c97 69be c261 14ba 50a5 863d cdf1 2ebd
000000c0: 7f56 af3d 23bf 15bc 9f5e 78bd c21f 773d
000000d0: 04dd df3d 5ca4 63bd ef2d 2e3e edd0 f5bc
000000e0: bea8 373e 2417 babd 580b f8bd 48e7 b4bd
000000f0: c34d 85be da03 21be 1eb6 e9bd 0880 debc
00000100: eb32 64be eb0e 55bc dee1 5ebe 0819 38be
00000110: 7a49 67bc a7ed dabd 5e9a f2bd b06b 2b3d
00000120: 9d89 24be 8531 813b 5993 b43d 10d6 57bc
00000130: 95b5 19be b9ef fb3d 3143 6bbd c453 0e3d
00000140: 67c7 823c cfc4 763d e0f9 213d 82f9 893d
00000150: bc5b 05bb cf66 f5bc 32e9 a9bd 6c3f 63bb
00000160: 04a6 b3bd e8ed 78bb 9760 e8bd 8ab0 8fbe
00000170: 4671 013e 2ab6 bf3d 8a1f 0d3e d98e 203d
00000180: b03e dabd c189 2fbe f7ab 96bd 4b3f 85bd
00000190: d6f1 62be b9b5 563d 5aed 003d 9f6f 813d
000001a0: 26c3 ebbc fac9 a1bd 8efb 363d fa7e 49bd
000001b0: 6f1d 0e3e 8f1c 853c be68 56bb 65a8 933d
000001c0: d310 99bd 7a54 d7bc 1caf 2bbd 3743 953d
000001d0: be4c 1abd 5e05 9fbd af9b b2bd 7af9 c53d
000001e0: 9101 b9bd b668 40be ac46 073e c40d 1e3e
000001f0: f2af ba39 5c1d 563d 83e9 08be 9a7e 833c
00000200: c29f d7bd 11ca 06be c4f5 86be 8760 67be
00000210: c65f 70be 7d72 a0be 48a9 75be 70ad 36bd
00000220: 642f 6bbe f318 63be 8f3d c7bd 8ea9 1dbe
00000230: 4433 adbe f840 8e3d 695c 1ebc 32b6 24be
00000240: 8ec9 5e3e 9685 63bd e15d f8bd 2e2c abbd
00000250: 11c5 09bb 20e2 bbbd 74e4 26be 3d9a 10be
00000260: 797f 68be 0253 583d 6359 053e f962 0d3d
00000270: 4bfd a43d 80e4 3fbb efe5 23bd 69cb 6f3d
00000280: 2d63 72bc 0701 e83d 96fd 85bd 11cb 1a3d
00000290: 5ea8 863d dd15 093e 538e 0f3e be15 cd38
000002a0: 80d9 bdbd 4b08 35be 65ac 003d 242c ce3d
000002b0: 91b6 49bd 09c8 b23c e01d 8fbd 84a6 0cbe
000002c0: d431 8cbd ef07 f7bd 6410 03be e8a6 77bd
000002d0: 5481 db3b ff0c 28be 392b 01be f6b9 9c3c
000002e0: a916 20be 850a d5bc 46b4 9dbd cae1 063d
000002f0: 9425 873e e9c3 f4bb e981 2c3e 8856 86bd
00000300: 8c7d 50bc 29e6 903d fa6b 183d 8527 f73d
00000310: 4cae a7bd 0ec5 9cba 5420 043e aa40 67bb
00000320: 3c53 b6bc 089d 48bc 2f00 ffbd 0fff c93d
00000330: b3d6 823c fb88 b2bd 09ac 8fbd 5084 b03c
00000340: 1ccb adbd 1a30 89bd 160a 053d 4732 4fbe
00000350: d7fe 78bd 2917 8c3d 1a45 623d e0de b23c
00000360: ecb6 92bd 2260 03be 6a02 ac3b 6409 99be
00000370: c1ba 97bd 71ec 23bd 38e4 0bbd 451f 9bbd
00000380: c4f8 99be 8266 1ebe e7f5 9ebd 058b f8bc
00000390: 1c75 8fbd 3007 bc3d fe1f 1a3d cdb3 053e
000003a0: 1440 af3d 7c18 3a3e ac9b 52be 529a 6ebe
000003b0: 425e 68be 2e47 11be 4c13 53be c5ba 79be
000003c0: b22d a5bd 94c6 debd 321e 94be e53e bc3e
000003d0: 382b 8abd 2ac8 62bd 84b7 35bd beb0 6b3c
000003e0: ed42 90be 3538 d73d b84b 4b3b a0f7 dabd
000003f0: fb0e 16bd 2990 913c 1ce2 393e 3024 833c

conv2d_12/bias:0 f4 [32]
0.07144161 -0.2030754 0.13001303 0.17991897 0.14787279 0.028233724 0.0746495 0.15096079
0.16332623 0.26764026 0.2355115 0.08316961 -0.1890372 0.10733356 0.0875016 0.21643941
0.17276585 0.07366877 0.32014734 -0.06324824 0.035675045 0.18447816 0.06643905 0.12763093
0.321718 0.05615952 0.1420872 0.19242834 0.14739111 0.1903973 0.16518866 0.057762813
00000000: fb4f 923d fff2 4fbe 2322 053e ae3c 383e
00000010: f76b 173e 694a e73c d6e1 983d 7795 1a3e
00000020: fe3e 273e 2508 893e ed29 713e d454 aa3d
00000030: f892 41be b3d1 db3d 0a34 b33d 4ba2 5d3e
00000040: 88e9 303e a7df 963d 5aea a33e 4b88 81bd
00000050: ff1f 123d d8e7 3c3e 3211 883d afb1 023e
00000060: 39b8 a43e 8607 663d 4f7f 113e ef0b 453e
00000070: b2ed 163e 83f7 423e 3727 293e b398 6c3d

conv2d_11/kernel:0 f4 [32, 32, 3, 3]
0.039312895 -0.30597356 0.04224819 -0.057098243 -0.013610774 -0.019605605 0.049143765 -0.12598598
0.07154176 -0.04584282 0.14509547 0.022343365 0.04976902 0.10030082 0.1332387 0.18803963
0.028790222 -0.12104454 -0.045928817 -0.042216595 -0.10581836 -0.042012844 -0.18211617 0.07818077
0.007887818 0.023812944 0.04969063 -0.021727767 0.015358273 -0.08189649 0.04626191 -0.0142615875
-0.02838568 0.023375427 -0.16477169 -0.11955677 -0.047163676 0.061579518 -0.11837595 0.048269246
0.08135259 -0.039198596 0.04023379 -0.017184163 -0.06781827 -0.4217439 -0.05366496 -0.37200117
-0.26254487 -0.0443999 -0.3733886 -0.31302106 0.01693743 -0.09897116 0.060660034 -0.04766344
-0.021665609 0.13899028 0.084069364 0.021212673 0.14147094 0.012368857 0.037426442 -0.09502233
-0.0019242167 -0.082334146 -0.019650042 0.031754564 -0.12241183 -0.06730549 0.08394191 0.013483287
-0.028495595 -0.15452522 -0.24846691 -0.16695218 -0.17037022 -0.1479994 -0.13752913 0.011975537
-0.15403329 -0.09732691 -0.12972575 -0.13764498 -0.14363368 -0.15760367 -0.0343852 0.07550382
-0.103418216 -0.066279195 0.029521968 -0.19134724 0.0054637385 -0.30428508 -0.13232626 0.0038395491
-0.018272324 -0.030994399 0.0059535797 0.046182215 -0.06925806 0.03205058 0.008111973 0.072274186
0.018014 0.03326503 0.09438716 0.027129544 -0.18331604 -0.020783218 -0.10554108 -0.04566353
-0.033123583 0.007691002 0.1568202 0.12140391 0.1186514 0.11717659 0.2335058 0.00087099365
-0.17087069 0.048657253 -0.20911013 -0.06453612 0.33587262 0.12397383 -0.086774446 -0.1226058
-0.042855877 -0.13578527 -0.09759162 -0.09870812 -0.23433504 -0.09902237 -0.21102624 -0.34050968
-0.0843973 0.20357095 -0.16006665 -0.19402455 -0.012618771 -0.094368264 0.15132701 -0.113456525
0.045667578 0.0041086683 -0.21593155 0.008609866 -0.01045431 0.085302144 -0.17216954 -0.13025977
0.041048568 -2.4158697e-05 0.0068029286 -0.18974172 0.13727534 -0.006947323 -0.08700705 -0.11063165
0.021890007 -0.054271374 0.24588172 0.042522248 -0.022502191 0.1390693 0.0625506 -0.03075475
0.02588492 0.036203235 0.018549874 -0.26768297 -0.102175854 -0.120067835 -0.22154856 -0.033026636
-0.10897917 -0.06312782 -0.032542117 -0.18515743 0.19010533 0.0021215905 0.071602106 0.10530108
0.030283784 0.00411977 0.21077442 -0.07146959 0.0273952 -0.15138142 0.021006316 0.105483375
-0.0038454134 -0.17392409 0.007872634 0.17421983 -0.08980146 0.087794065 -0.12451 0.026409315
-0.049991842 -0.24707995 -0.12962548 0.06606656 -0.12443825 -0.1011324 -0.15616745 -0.004121506
-0.030173779 0.070956744 0.037652634 -0.06797039 0.03764746 -0.094739854 -0.13311471 -0.0029289396
-0.03835616 -0.059673395 -0.1328998 0.052534442 0.03182654 -0.039658505 0.21000737 0.09363357
-0.050280966 0.009007758 -0.12711157 -0.18939234 0.12078021 0.115161635 -0.14562279 0.036601298
0.16879746 -0.09784699 0.046358842 -0.22671656 -0.25838143 -0.100122675 -0.30379713 0.207265
0.033381708 -0.001129032 -0.11551578 -0.25250652 0.02806487 -0.1820984 -0.039985023 0.0148158455
-0.27494347 -0.044771593 -0.0619196 -0.4917531 0.14514583 -0.08315633 -0.061183035 0.012804116
00000000: 8f06 213d 91a8 9cbe 700c 2d3d d9df 69bd
00000010: b9ff 5ebc ef9b a0bc f94a 493d 7802 01be
00000020: 7c84 923d aec5 3bbd e893 143e 6f09 b73c
00000030: 9ada 4b3d 846a cd3d ba6f 083e 768d 403e
00000040: 79d9 eb3c 33e6 f7bd db1f 3cbd 4feb 2cbd
00000050: 4cb7 d8bd a915 2cbd a97c 3abe 3d1d a03d
00000060: e83b 013c 5d13 c33c 6788 4b3d 6efe b1bc
00000070: 44a1 7b3c 59b9 a7bd 217d 3d3d 6fa9 69bc
00000080: 1689 e8bc d37d bf3c e9b9 28be 2eda f4bd
00000090: b32e 41bd ce3a 7c3d 176f f2bd f9b5 453d
000000a0: 309c a63d b58e 20bd 30cc 243d cdc5 8cbc
000000b0: 4ee4 8abd d1ee d7be cacf 5bbd f076 bebe
000000c0: 486c 86be abdc 35bd ca2c bfbe 4c44 a0be
000000d0: 5dc0 8a3c 64b1 cabd a876 783d bd3a 43bd
000000e0: 137c b1bc 7853 0e3e 8f2c ac3d 33c6 ad3c
000000f0: c2dd 103e bfa6 4a3c 784c 193d 119b c2bd
00000100: 0036 fcba ce9e a8bd 20f9 a0bc 1311 023d
00000110: 0eb3 fabd 76d7 89bd bce9 ab3d 01e9 5c3c
00000120: 986f e9bc dc3b 1ebe 1c6e 7ebe 83f5 2abe
00000130: 8875 2ebe 288d 17be 70d4 0cbe 0b35 443c
00000140: e7ba 1dbe 5553 c7bd d4d6 04be cef2 0cbe
00000150: b514 13be db62 21be 7fd7 0cbd bfa1 9a3d
00000160: eecc d3bd 63bd 87bd 0ed8 f13c 88f0 43be
00000170: 2909 b33b 41cb 9bbe 8980 07be f2a0 7b3b
00000180: d7af 95bc f7e7 fdbc 3f16 c33b 9029 3d3d
00000190: 2bd7 8dbd 7847 033d 15e8 043c 7d04 943d
000001a0: 1992 933c e940 083d 0e4e c13d c73e de3c
000001b0: 33b7 3bbe 9141 aabc ec25 d8bd ae09 3bbd
000001c0: 98ac 07bd cd04 fc3b 7995 203e 9da2 f83d
000001d0: 81ff f23d 48fa ef3d 251c 6f3e 6553 643a
000001e0: baf8 2ebe d44c 473d f720 56be 832b 84bd
000001f0: 7ff7 ab3e fee5 fd3d cdb6 b1bd c018 fbbd
00000200: a589 2fbd 4b0b 0bbe 1ede c7bd 7c27 cabd
00000210: 86f5 6fbe 3ecc cabd 4317 58be 4957 aebe
00000220: 7ed8 acbd e774 503e 83e8 23be 5fae 46be
00000230: f6be 4ebc 2644 c1bd 78f5 1a3e e55b e8bd
00000240: ed0d 3b3d 02a2 863b 291d 5dbe 6510 0d3c
00000250: 8e48 2bbc e4b2 ae3d 364d 30be d162 05be
00000260: 8b22 283d 68a8 cab7 1aeb de3b a74b 42be
00000270: e891 0c3e 5fa6 e3bb c130 b2bd d992 e2bd
00000280: ac52 b33c a94b 5ebd 6bc8 7b3e cf2b 2e3d
00000290: 8456 b8bc 2f68 0e3e 871a 803d 63f1 fbbc
000002a0: 9d0c d43c d849 143d e8f5 973c be0d 89be
000002b0: 9341 d1bd 20e6 f5bd a0dd 62be f046 07bd
000002c0: 7930 dfbd 2949 81bd e24a 05bd e999 3dbe
000002d0: f9aa 423e 620a 0b3b 20a4 923d 18a8 d73d
000002e0: b315 f83c 23ff 863b 40d5 573e a65e 92bd
000002f0: e66b e03c bb03 1bbe 7015 ac3c ab07 d83d
00000300: 5503 7cbb 2819 32be 38fc 003c af66 323e
00000310: d4e9 b7bd 60cd b33d 19ff febd 5958 d83c
00000320: 3fc4 4cbd 8702 7dbe 8bbc 04be e84d 873d
00000330: 7bd9 febd 811e cfbd 5cea 1fbe b30d 87bb
00000340: 002f f7bc c551 913d a639 1a3d 0f34 8bbd
00000350: 3934 1a3d f806 c2bd 394f 08be 74f3 3fbb
00000360: 591b 1dbd 176c 74bd e316 08be 5b2e 573d
00000370: 8c5c 023d f570 22bd 2c0c 573e f5c2 bf3d
00000380: 6af3 4dbd 4795 133c 8929 02be 11f0 41be
00000390: 9d5b f73d ddd9 eb3d 241e 15be 3eeb 153d
000003a0: 3ed9 2c3e 0164 c8bd c5e2 3d3d 6328 68be
000003b0: 924a 84be 1e0d cdbd 4c8b 9bbe 473d 543e
000003c0: 42bb 083d 07fc 93ba 8a93 ecbd 8948 81be
000003d0: 4ce8 e53c 0178 3abe 56c7 23bd 29be 723c
000003e0: 64c5 8cbe 6b62 37bd 689f 7dbd 10c7 fbbe
000003f0: 1ca1 143e de4d aabd 109b 7abd 5bc8 513c

conv2d_11/bias:0 f4 [32]
-0.15516628 -0.19199495 -0.2049008 -0.11985197 0.111161895 0.014981047 0.14074208 0.03941966
-0.19635788 0.111401446 -0.14500107 -0.08503745 0.05808614 -0.28750542 -0.11277483 -0.008433181
-0.19962241 0.122656636 -0.015641488 0.19075453 0.006313282 -0.16364308 0.18156579 -0.2504759
-0.12361077 -0.008026279 0.13319898 0.15750045 0.10236198 -0.07402981 0.094977275 -0.14750583
00000000: e9e3 1ebe 539a 44be 84d1 51be f374 f5bd
00000010: d9a8 e33d 1173 753c b11e 103e 8276 213d
00000020: 0a12 49be 7126 e43d 297b 14be 1d28 aebd
00000030: bbeb 6d3d e933 93be 7df6 e6bd 532b 0abc
00000040: d169 4cbe 6733 fb3d 9422 80bc 2855 433e
00000050: a6df ce3b 0d92 27be 62ec 393e 613e 80be
00000060: a527 fdbd a780 03bc 5065 083e cc47 213e
00000070: 28a3 d13d f19c 97bd 7283 c23d c50b 17be

conv2d_10/kernel:0 f4 [32, 64, 3, 3]
-0.110185586 -0.10597044 0.043163657 -0.030514266 -0.09962288 0.02901435 -0.1996342 -0.22738485
0.002885509 -0.13953176 0.13502583 0.009095794 0.00485204 0.00012047171 -0.0052153487 -0.012490864
-0.05738636 -0.05306308 -0.20433906 -0.22931173 -0.13709581 -0.22456722 -0.3934561 0.088245064
-0.14667657 -0.173057 -0.0050395904 0.1561245 -0.038603604 0.080451824 0.043416027 -0.034876402
0.07704844 0.10311619 0.0716698 0.02917122 0.037424926 0.033968166 0.048743285 0.03932988
-0.05505603 0.08465629 -0.30244973 -0.053224728 0.096558206 0.008708839 -0.19846804 0.18121754
0.13707726 -0.14894968 -0.14651081 0.12121977 -0.076448604 0.031049123 0.14701891 -0.06531381
-0.14026342 0.017205974 -0.11531219 -0.27376673 0.14518961 0.055183012 -0.25941256 -0.10734442
-0.024587287 -0.40254363 0.01793282 -0.04087737 -0.37400892 0.06323456 0.05481822 -0.14759459
-0.029009545 -0.029351747 -0.15346777 0.013666507 -0.05388009 0.014162022 -0.012334353 0.052455857
0.018785037 -0.0909748 0.13777685 -0.01706601 0.008855376 -0.007747779 -0.032075014 -0.058815468
0.020796685 -0.0029671234 -0.007806342 0.02460497 -0.072095916 0.03695646 -0.04112689 0.05327549
0.02739865 -0.10801088 -0.0113674775 -0.2500125 -0.07674808 0.04849244 0.03357405 0.04547868
-0.19940495 0.026659941 0.027999196 -0.26175183 0.054705914 -0.053669576 -0.13721739 -0.19641635
-0.112539135 -0.05246644 0.073564425 0.102409214 -0.108928196 0.012583431 -0.28484082 -0.12694237
-0.15094076 -0.12231971 -0.07630801 -0.0074967863 -0.20669411 0.049489796 -0.19920461 -0.06410258
-0.06713172 -0.1729693 -0.05303719 -0.065498695 -0.09418595 -0.02976578 -0.14226595 0.14467254
0.0744809 -0.07317729 0.11066798 -0.08878301 -0.06945547 0.06458892 0.055872943 -0.041972954
0.064099036 -0.113133915 -0.025646219 0.056054663 -0.1521901 0.02622843 0.04158757 -0.003950539
0.035814878 0.08501668 0.054709077 -0.16095382 0.13920562 -0.0062541263 -0.23504728 -0.045065023
-0.0041043856 0.07209412 0.10142287 -0.20877188 -0.05790672 -0.038072895 -0.23447175 0.03542276
0.08679113 -0.23206034 0.1384245 0.1551629 0.12623729 0.046737745 0.1988821 0.046393268
-0.04528705 -0.059091996 0.07279174 -0.03756843 0.19657572 0.14393914 0.012023188 0.14337431
0.24275868 0.044438157 0.29102096 0.2938573 0.057666916 0.0034241555 -0.037236564 0.17754321
-0.26904795 -0.18244253 0.118175656 -0.22062105 -0.13695437 0.20713493 0.08703828 -0.08026137
-0.12872916 0.07202418 0.10416059 0.06808701 -0.018176468 -0.15187012 -0.08335316 -0.08556103
-0.006204455 -0.037184168 -0.06284164 -0.046141967 -0.045974337 -0.015271239 0.100865036 -0.1381083
-0.36877474 0.15402648 -0.08351792 0.09163102 0.044434033 -0.010136235 -0.13633469 0.13958453
0.27790597 -0.17647637 -0.17794324 0.11390343 -0.07977713 -0.20373164 0.020196855 0.014741402
-0.19901405 0.17549086 -0.19906223 -0.1804048 0.02332294 -0.05076834 -0.27307212 0.07258445
-0.013610584 -0.22885877 0.061819803 -0.15398355 -0.0472983 -0.01884917 -0.09205466 -0.023669025
0.037088044 -0.1211336 0.07825435 0.04410386 -0.16795447 -0.18235162 -0.25109884 0.00785379
00000000: fba8 e1bd 0807 d9bd 60cc 303d 0ef9 f9bc
00000010: 1507 ccbd 81af ed3c e86c 4cbe 93d7 68be
00000020: cf1a 3d3b 6ae1 0ebe 3644 0a3e 8606 153c
00000030: ddfd 9e3b c2a5 fc38 84e5 aabb 7ba6 4cbc
00000040: f60d 6bbd ac58 59bd 423e 51be b2d0 6abe
00000050: d862 0cbe f3f4 65be 1473 c9be d4b9 b43d
00000060: 6232 16be db35 31be 2623 a5bb 1adf 1f3e
00000070: d01e 1ebd edc3 a43d 01d5 313d 8fda 0ebd
00000080: 93cb 9d3d 952e d33d 9ec7 923d 7bf8 ee3c
00000090: e14a 193d 3422 0b3d 0aa7 473d 5e18 213d
000000a0: 6f82 61bd 4760 ad3d b1da 9abe 2c02 5abd
000000b0: 4fc0 c53d 85af 0e3c 353b 4bbe 1791 393e
000000c0: fb5d 0c3e 4486 18be ee06 16be 1242 f83d
000000d0: 1691 9cbd bb5a fe3c 208c 163e 3fc3 85bd
000000e0: 37a1 0fbe 8bf3 8c3c cc28 ecbd 272b 8cbe
000000f0: 96ac 143e 9507 623d b9d1 84be 64d7 dbbd
00000100: 476b c9bc 331a cebe d9e7 923c 076f 27bd
00000110: 197e bfbe 1f81 813d 1289 603d 0923 17be
00000120: 6da5 edbc 1373 f0bc a826 1dbe 7ce9 5f3c
00000130: 5fb1 5cbd d307 683c 0716 4abc f4db 563d
00000140: 14e3 993c ff50 babd 6015 0d3e 04ce 8bbc
00000150: 2416 113c 15e1 fdbb 1761 03bd 7de8 70bd
00000160: cf5d aa3c 1274 42bb 58cc ffbb 5d90 c93c
00000170: 06a7 93bd a85f 173d ab74 28bd 6637 5a3d
00000180: 2273 e03c cf34 ddbd a83e 3abc a301 80be
00000190: 192e 9dbd 02a0 463d f184 093d da47 3a3d
000001a0: d030 4cbe f365 da3c 925e e53c 5604 86be
000001b0: 4f13 603d a1d4 5bbd b782 0cbe 5e21 49be
000001c0: eb7a e6bd 0de7 56bd f2a8 963d ecbb d13d
000001d0: bf15 dfbd bc2a 4e3c a8d6 91be 2efd 01be
000001e0: 3790 1abe c282 fabd 6047 9cbd 9aa7 f5bb
000001f0: 9fa7 53be d0b5 4a3d 4bfc 4bbe 3748 83bd
00000200: 5b7c 89bd dd1e 31be 863d 59bd 2e24 86bd
00000210: 90e4 c0bd 5dd7 f3bc 2aae 11be 0a25 143e
00000220: 7189 983d fadd 95bd e5a5 e23d ded3 b5bd
00000230: ab3e 8ebd 3247 843d 07db 643d d5eb 2bbd
00000240: 5b46 833d c1b2 e7bd 0518 d2bc 9399 653d
00000250: b9d7 1bbe 01dd d63c ba57 2a3d 8673 81bb
00000260: 9fb2 123d 3a1d ae3d a016 603d 14d1 24be
00000270: eb8b 0e3e 6aef ccbb 3cb0 70be 1a96 38bd
00000280: 157e 86bb 15a6 933d cbb6 cf3d 4cc8 55be
00000290: 992f 6dbd 53f2 1bbd 5d19 70be 7517 113d
000002a0: 8cbf b13d 3aa1 6dbe 27bf 0d3e 06e3 1e3e
000002b0: 5944 013e 1470 3f3d c0a7 4b3e de06 3e3d
000002c0: ea7e 39bd 730a 72bd d613 953d 5be1 19bd
000002d0: 254b 493e c864 133e e8fc 443c b7d0 123e
000002e0: bb95 783e c904 363d b300 953e 7774 963e
000002f0: 2534 6c3d cc67 603b 5e85 18bd e3cd 353e
00000300: a7c0 89be 37d2 3abe 1406 f23d 7cea 61be
00000310: c43d 0cbe 2e1b 543e 2041 b23d 1360 a4bd
00000320: 94d1 03be 6a81 933d 2652 d53d 3471 8b3d
00000330: d1e6 94bc d783 1bbe 10b5 aabd 9f3a afbd
00000340: be4e cbbb 6d4e 18bd 1eb3 80bd 5cff 3cbd
00000350: 964f 3cbd 3834 7abc 5492 ce3d 436c 0dbe
00000360: 0bd0 bcbe 1eb9 1d3e 710b abbd 0ba9 bb3d
00000370: 7600 363d 7312 26bc 529b 0bbe 3fef 0e3e
00000380: b149 8e3e 39b6 34be c136 36be 3446 e93d
00000390: 3162 a3bd 079f 50be e073 a53c ec85 713c
000003a0: 57ca 4bbe e0b3 333e f8d6 4bbe 09bc 38be
000003b0: c00f bf3c 76f2 4fbd 1cd0 8bbe 28a7 943d
000003c0: edfe 5ebc f459 6abe c336 7d3d ddad 1dbe
000003d0: ddbb 41bd 9369 9abc 2787 bcbd 8be5 c1bc
000003e0: a2e9 173d e514 f8bd d143 a03d 40a6 343d
000003f0: 42fc 2bbe 62ba 3abe 0790 80be 2fad 003c

conv2d_10/bias:0 f4 [32]
-0.018477729 -0.028976748 -0.15694149 0.089351796 -0.14699535 0.16973579 -0.18878761 0.11744806
0.16207911 0.06741016 -0.14661397 0.10545438 -0.05750113 -0.15284452 0.19709955 0.15570483
-0.17332873 0.09269202 0.129829 -0.22597615 0.03359997 -0.008382117 -0.13101217 0.1275567
0.040272474 -0.11612111 -0.11126613 0.20895337 -0.25160503 0.047832683 0.08380748 0.08288319
00000000: 9b5e 97bc a560 edbc 45b5 20be 13fe b63d
00000010: f385 16be 38cf 2d3e 8a51 41be 9c88 f03d
00000020: 11f8 253e 570e 8a3d f921 16be 77f8 d73d
00000030: 4e86 6bbd 4683 1cbe 77d4 493e 1671 1f3e
00000040: 167d 31be 50d5 bd3d e5f1 043e 4b66 67be
00000050: 1fa0 093d 2655 09bc 0e28 06be 399e 023e
00000060: c0f4 243d e8d0 edbd 7fdf e3bd dff7 553e
00000070: 60d2 80be 34ec 433d 42a3 ab3d a9be a93d
