DNSMOS/DNSMOS/bak_ovr.onnx (onnx, 742375 bytes, 20 tensors)

mos_estimator_v1/dense_2/BiasAdd/ReadVariableOp/resource:0 f4 [3]
0.6542005 0.6047121 0.44955295
00000000: af79 273f 6ace 1a3f ce2b e63e

mos_estimator_v1/dense_2/MatMul/ReadVariableOp/resource:0 f4 [64, 3]
-0.11785795 -0.2471204 0.17819366 -0.087521024 0.17882879 0.19552244 0.12104559 0.13243634
-0.18116225 0.07536666 0.08052442 0.09764996 0.23095982 0.10453419 0.27490908 -0.15397027
-0.15879515 0.019557029 -0.025979707 -0.009930479 -0.10688146 0.048058335 -0.033427417 0.016174607
0.025988648 0.009824792 0.0011447686 -0.09314614 -0.20204362 -0.044789884 -0.03233826 -0.19391827
0.22511351 -0.026109682 0.027261605 0.03403776 -0.020630943 0.13958643 -0.026484385 0.022415763
0.20421706 0.21257246 -0.080999956 -0.12654853 0.053753782 0.09618413 0.16099092 -0.08062348
-0.1853984 0.0061566792 0.20498434 -0.06711615 0.015692487 0.055253934 0.27031595 0.32233
0.046217307 -0.032204393 -0.09029063 -0.074552275 -0.07544183 0.10808951 -0.090496406 0.094726086
-0.24205051 -0.23519441 -0.18306284 -0.0745567 0.18475583 -0.062177494 0.16515313 0.24464051
0.15162563 0.1089244 0.11078892 -0.072801664 0.18340781 0.08580719 -0.17625579 -0.060976434
0.23800214 -0.233614 -0.14089489 -0.23330712 -0.2155529 0.09267909 -0.025882646 -0.1713024
0.055183813 0.051835276 -0.06850274 -0.17511939 0.08544083 -0.18947785 0.20565535 -0.1552809
-0.083674796 -0.12569143 0.23156853 -0.03870744 0.15997241 -0.24434589 0.3549504 -0.14888696
-0.18730548 0.31412494 -0.22198346 -0.035402834 -0.14528924 0.06422679 -0.096733645 -0.13049307
-0.12800726 0.014517481 -0.12255443 0.09695488 -0.1779647 -0.090892084 -0.24594274 -0.19202569
-0.09569012 -0.09999021 -0.096306086 0.0667522 -0.15082023 -0.07657133 -0.07312815 -0.004177491
0.12815751 0.07119896 0.08196835 0.21428455 0.13852939 -0.23554862 -0.23801368 -0.1269247
-0.18307118 0.28482574 -0.15279818 -0.16021316 0.13146564 -0.23826371 0.13735463 0.11648831
-0.25390655 0.0014519527 0.14387794 -0.017183043 -0.11964578 -0.03615444 0.14431642 -0.016237149
0.15830104 -0.055200003 -0.103496015 -0.03912182 -0.16063967 0.100920536 0.032573856 0.0347181
0.19414501 -0.15464142 0.12828726 0.2192126 -0.027643684 0.13260987 0.09405341 -0.004902466
-0.05157298 0.16066964 -0.18239753 0.28582788 0.22352858 -0.039820388 -0.025149798 -0.024992904
0.11806753 0.033757597 0.027816042 0.02150767 0.13049723 0.07189631 0.07582911 -0.16183902
0.13198872 -0.0044113463 -0.19914672 -0.01921663 -0.22136939 -0.1485267 0.11676018 0.03448324
00000000: 825f f1bd 210d 7dbe 6678 363e 393e b3bd
00000010: e51e 373e 0937 483e c0e6 f73d 649d 073e
00000020: 9982 39be d659 9a3d fde9 a43d b4fc c73d
00000030: bb80 6c3e 0516 d63d e2c0 8c3e 62aa 1dbe
00000040: 329b 22be 1036 a03c 65d3 d4bc 73b3 22bc
00000050: abe4 dabd d1d8 443d 30eb 08bd 9c80 843c
00000060: 25e6 d43c 2af8 203c 0f0c 963a 67c3 bebd
00000070: 86e4 4ebe 9975 37bd 2075 04bd 8392 46be
00000080: 2884 663e f9e3 d5bc bb53 df3c 2e6b 0b3d
00000090: 3902 a9bc bfef 0e3e c8f5 d8bc 43a1 b73c
000000a0: 471e 513e 98ac 593e 4ee3 a5bd f095 01be
000000b0: ed2c 5c3d 2ffc c43d ceda 243e ec1d a5bd
000000c0: 14d9 3dbe f8bd c93b 6ae7 513e 3174 89bd
000000d0: 888d 803c f351 623d da66 8a3e 7008 a53e
000000e0: 5c4e 3d3d c1e8 03bd 4bea b8bd ddae 98bd
000000f0: 3f81 9abd 085e dd3d 2e56 b9bd c0ff c13d
00000100: 17dc 77be ced6 70be d374 3bbe 2fb1 98bd
00000110: a230 3d3e d4ad 7ebd e71d 293e 0b83 7a3e
00000120: c043 1b3e c113 df3d 4de5 e23d 0a19 95bd
00000130: 42cf 3b3e aebb af3d 667c 34be 6dc2 79bd
00000140: d5b6 733e 8238 6fbe c046 10be 10e8 6ebe
00000150: e6b9 5cbe 89ce bd3d d807 d4bc e569 2fbe
00000160: 6c08 623d 3a51 543d 2a4b 8cbd 7f52 33be
00000170: 9afb ae3d 7b06 42be 5197 523e f501 1fbe
00000180: b15d abbd 41b5 00be 4d20 6d3e b18b 1ebd
00000190: cfcf 233e cf35 7abe 0fbc b53e d375 18be
000001a0: 02cd 3fbe fcd4 a03e a24f 63be 9002 11bd
000001b0: b4c6 14be 5689 833d 4a1c c6bd fa9f 05be
000001c0: 5614 03be bbda 6d3c d1fd fabd 4890 c63d
000001d0: 613c 36be a125 babd 6ad8 7bbe 62a2 44be
000001e0: 2ef9 c3bd abc7 ccbd 203c c5bd 61b5 883d
000001f0: 9e70 1abe 6ed1 9cbd 36c4 95bd 56e3 88bb
00000200: b93b 033e c3d0 913d 06df a73d 696d 5b3e
00000210: a6da 0d3e a833 71be dcb9 73be 8cf8 01be
00000220: 0377 3bbe aed4 913e 2077 1cbe eb0e 24be
00000230: ee9e 063e 67fb 73be b1a6 0c3e 6c91 ee3d
00000240: 0a00 82be 734f be3a bd54 133e 74c3 8cbc
00000250: d908 f5bd ae16 14bd afc7 133e c503 85bc
00000260: ab19 223e 6619 62bd b8f5 d3bd 343e 20bd
00000270: ba7e 24be 6daf ce3d 2a6c 053d 9134 0e3d
00000280: f3cd 463e 525a 1ebe bc5d 033e 4579 603e
00000290: 0275 e2bc e2ca 073e 139f c03d dea4 a0bb
000002a0: 303e 53bd 9586 243e 6bc6 3abe 0858 923e
000002b0: ade4 643e b41a 23bd f306 cebc ebbd ccbc
000002c0: 64cd f13d 6845 0a3d 78de e33c da30 b03c
000002d0: 11a1 053e 5f3e 933d 4b4c 9b3d 21b9 25be
000002e0: 0d28 073e 0e8d 90bb 1eed 4bbe 326c 9dbc
000002f0: a8ae 62be 6217 18be f61f ef3d 4c3e 0d3d

mos_estimator_v1/dense_1/BiasAdd/ReadVariableOp/resource:0 f4 [64]
-0.05339134 -0.07556263 -0.07078115 0.05606922 0.54891455 -0.07278567 -0.0849675 0.25106546
-0.069616176 -0.15099801 -0.10361784 -0.09464374 0.19905594 0.501402 -0.10742384 0.63007134
-0.09030599 0.09641136 0.7174793 -0.10614473 -0.097412206 -0.087623544 -0.08776491 0.38127977
0.5602007 -0.06345537 -0.06089205 -0.080187604 -0.1175483 -0.11588898 -0.062038817 -0.06349736
-0.07800646 -0.098469324 -0.09739855 -0.031134397 0.18381567 -0.14003609 -0.14028293 -0.026087305
-0.11162272 0.05428979 0.19888054 0.4877745 -0.060748316 -0.10733699 -0.15821926 -0.107054375
-0.019871986 -0.14350356 0.43083486 -0.062827855 -0.040801547 -0.10504544 0.59819025 0.6132284
-0.12942879 0.7374611 0.03737919 -0.13837466 -0.0393168 -0.095703065 -0.04393566 -0.04832397
00000000: e1b0 5abd 95c0 9abd b5f5 90bd d7a8 653d
00000010: aa85 0c3f a710 95bd 7103 aebd a78b 803e
00000020: ed92 8ebd 399f 1abe 9735 d4bd 94d4 c1bd
00000030: 52d5 4b3e e25b 003f 0801 dcbd 5b4c 213f
00000040: 59f2 b8bd 5273 c53d b9ac 373f 6862 d9bd
00000050: 0d80 c7bd f973 b3bd 17be b3bd 1a37 c33e
00000060: 5069 0f3f e4f4 81bd f169 79bd 6639 a4bd
00000070: 2abd f0bd 3457 edbd 6a1c 7ebd e70a 82bd
00000080: dac1 9fbd 49aa c9bd e478 c7bd 900d ffbc
00000090: 2d3a 3c3e 9f65 0fbe 54a6 0fbe 0bb5 d5bc
000000a0: 749a e4bd f95e 5e3d 57a7 4b3e 94bd f93e
000000b0: 3ad3 78bd 7fd3 dbbd 3b04 22be 533f dbbd
000000c0: 93ca a2bc 99f2 12be 6396 dc3e e4ab 80bd
000000d0: 861f 27bd 1022 d7bd ff22 193f 89fc 1c3f
000000e0: fb88 04be 40ca 3c3f ec1a 193d 16b2 0dbe
000000f0: a70a 21bd f8ff c3bd e1f5 33bd 5bef 45bd

mos_estimator_v1/dense_1/MatMul/ReadVariableOp/resource:0 f4 [128, 64]
-0.12879428 -0.1604914 -0.017635584 -0.021437054 0.12790653 0.05189988 -0.011932358 -0.004449597
0.15951182 0.09068458 0.08198334 -0.05036144 0.13166961 -0.0021542548 0.082733616 -0.08967513
0.14445542 0.026134297 -0.15445437 0.055436052 -0.02915752 -0.111161426 0.06554222 0.114785746
-0.17704232 0.0381075 -0.158065 -0.052536212 0.0044456124 -0.030701786 -0.15002212 0.0223943
0.1382779 0.049918473 -0.10333193 -0.0991685 -0.066384695 -0.07005253 -0.046346024 0.16410233
-0.16628622 0.0036424783 0.14146666 0.12700671 0.12673955 -0.09126723 0.1578785 -0.17173754
0.09167354 0.17224042 0.06314782 0.11421211 -0.1636933 0.11294754 -0.14739703 0.025248116
0.13013633 -0.1462543 -0.118999556 -0.10359417 -0.15469103 0.14468376 -0.026609197 -0.12623419
0.15696871 0.041681822 -0.061740957 0.04437107 -0.12956218 -0.1605534 0.110660344 0.013472275
-0.1703787 0.13710354 0.09654403 0.095946275 -0.07144473 -0.15195115 -0.093140475 -0.24151106
-0.0134436935 -0.0030654676 0.105435334 -0.01131599 0.030195395 -0.09822091 0.05594451 0.025261905
0.043069378 -0.069982946 0.17820132 -0.09289403 0.0400316 -0.18192403 -0.06265955 -0.06849419
0.027558431 0.03504407 -0.14705718 -0.07644089 0.09473231 0.014678236 -0.11191552 -0.14856702
-0.061658632 0.11793627 -0.010117872 0.1269989 -0.016048884 0.12543733 0.11018995 -0.14448677
-0.1645536 0.20950836 -0.044365183 0.05595007 -0.07995764 -0.14031194 0.011672099 0.1267405
-0.15411398 0.056066137 0.11147303 -0.21037741 0.044746254 0.0077631176 0.104479 -0.28355557
0.13524474 0.13665031 -0.15862763 -0.09801704 -0.12842448 -0.15178783 -0.031302586 -0.13569638
-0.013787702 -0.08557589 0.051065966 0.10984506 0.21724339 0.056796145 -0.1724818 0.11302452
0.025279561 -0.04134337 -0.036388773 0.12921047 0.1635367 -0.1362521 -0.074243486 -0.08554993
-0.13303584 -0.019270342 -0.032528475 -0.13726163 0.1387119 -0.015773118 -0.14682128 -0.1216927
0.102370426 0.06662649 0.10012729 -0.17159432 -0.014379226 -0.04819074 0.15470006 0.009254014
0.019395515 -0.0024810282 0.17036527 0.011402293 0.015022755 -0.124540806 0.03860642 8.323789e-05
-0.10364368 0.1250791 0.07153801 -0.00063023943 -0.12555331 0.1314822 -0.07775442 0.009224804
-0.055758685 -0.08005433 0.0971454 0.035703395 0.093886904 -0.010866433 -0.15908143 0.17994876
-0.00034666687 -0.03334409 -0.17288317 -0.02876409 0.07845849 -0.06105882 -0.051933363 0.014954575
0.0772754 0.13023958 -0.10819534 -0.065973535 -0.08141232 0.07479273 0.10314037 0.061095327
-0.14977986 0.04651764 -0.19455808 -0.1853762 0.0577769 -0.09027107 0.1231982 0.045472704
0.109766 -0.17763987 -0.07663032 -0.03458497 -0.12368805 0.07228186 -0.027787363 0.090856
-0.12202292 0.1710361 -0.13580245 -0.05318296 0.04309783 -0.19290975 0.12899674 -0.11780758
-0.08582198 -0.40529954 -0.138977 -0.17270362 0.12111645 -0.12625416 0.071059 0.032343663
-0.066208 -0.19737893 0.06738105 0.10508955 0.051637534 0.12935229 -0.06795401 -0.055000566
-0.069860555 -0.019421002 0.05045415 0.11422418 -0.07398724 -0.10946746 0.13611545 0.15075538
00000000: a6e2 03be dc57 24be 8078 90bc c39c afbc
00000010: eef9 023e f894 543d f07f 43bc edcd 91bb
00000020: 1157 233e d6b8 b93d e2e6 a73d cc47 4ebd
00000030: 66d4 063e 662e 0dbb 3e70 a93d 98a7 b7bd
00000040: 1fec 133e 9817 d63c 4929 1ebe ea10 633d
00000050: c0db eebc 9aa8 e3bd 003b 863d ca14 eb3d
00000060: 954a 35be 9c16 1c3d cbdb 21be 3630 57bd
00000070: 80ac 913b 5082 fbbc 669f 19be 4074 b73c
00000080: b998 0d3e 5077 4c3d b19f d3bd db18 cbbd
00000090: b3f4 87bd b377 8fbd 54d5 3dbd 710a 283e
000000a0: ef46 2abe a5b6 6e3b a3dc 103e 0c0e 023e
000000b0: 03c8 013e 50ea babd e7aa 213e f7db 2fbe
000000c0: 56bf bb3d cb5f 303e a553 813d 0ae8 e93d
000000d0: 379f 27be 0a51 e73d 3fef 16be 23d5 ce3c
000000e0: 7542 053e b0c3 15be 0ab6 f3bd 2e29 d4bd
000000f0: 5367 1ebe fb27 143e 88fb d9bc 8943 01be
00000100: 68bc 203e 8fba 2a3d 16e4 7cbd 70be 353d
00000110: f3ab 04be 1c68 24be e4a1 e23d d1ba 5c3c
00000120: c177 2ebe df64 0c3e e0b8 c53d 7b7f c43d
00000130: 9d51 92bd 1599 1bbe 6fc0 bebd ad4e 77be
00000140: f042 5cbc 03e6 48bb 7bee d73d b466 39bc
00000150: 555c f73c 0b28 c9bd 1226 653d 0ef2 ce3c
00000160: 8469 303d 3853 8fbd 687a 363e 3a3f bebd
00000170: 2df8 233d 4b4a 3abe a653 80bd af46 8cbd
00000180: 38c2 e13c 5f8a 0f3d 2896 16be 0b8d 9cbd
00000190: 0303 c23d fc7c 703c f733 e5bd f421 18be
000001a0: c38d 7cbd 9288 f13d 6ec5 25bc 000c 023e
000001b0: f378 83bc a572 003e 45ab e13d 57f4 13be
000001c0: bd80 28be 5c89 563e 44b8 35bd e72b 653d
000001d0: d5c0 a3bd efad 0fbe 553c 3f3c 43c8 013e
000001e0: 0ed0 1dbe 9ba5 653d f94b e43d 2d6d 57be
000001f0: d947 373d c061 fe3b 16f9 d53d 322e 91be
00000200: 997d 0a3e 0fee 0b3e 486f 22be 28bd c8bd
00000210: b581 03be 456e 1bbe 2437 00bd fef3 0abe
00000220: d0e5 61bc 6a42 afbd 8c2a 513d 72f6 e03d
00000230: 0d75 5e3e 13a3 683d 129f 30be 6679 e73d
00000240: 1517 cf3c aa57 29bd 650c 15bd c04f 043e
00000250: 2a76 273e ac85 0bbe f80c 98bd cd34 afbd
00000260: 8c3a 08be d6dc 9dbc 943c 05bd 508e 0cbe
00000270: 7e0a 0e3e a036 81bc 5158 16be 063a f9bd
00000280: 96a7 d13d 7873 883d 890f cd3d 6cb6 2fbe
00000290: d896 6bbc a763 45bd b169 1e3e 269e 173c
000002a0: 58e3 9e3c bf98 22bb 3c74 2e3e afd0 3a3c
000002b0: 0022 763c 400f ffbd c421 1e3d 0090 ae38
000002c0: 2343 d4bd bc14 003e 8582 923d a736 25ba
000002d0: 0c91 00be 45a3 063e b63d 9fbd a223 173c
000002e0: 3863 64bd 86f3 a3bd 2bf4 c63d b93d 123d
000002f0: c747 c03d 2009 32bc 3ee6 22be 7d44 383e
00000300: d7c0 b5b9 d093 08bd 4908 31be aba2 ebbc
00000310: d8ae a03d d018 7abd 14b8 54bd 0904 753c
00000320: 9142 9e3d 865d 053e 8595 ddbd 221d 87bd
00000330: 81bb a6bd ee2c 993d 423b d33d 183f 7a3d
00000340: e45f 19be 4889 3e3d 3c3a 47be 42d3 3dbe
00000350: 78a7 6c3d 0ae0 b8bd 564f fc3d 9641 3a3d
00000360: ffcc e03d 3ae7 35be 5bf0 9cbd f8a8 0dbd
00000370: 2950 fdbd 8308 943d 53a2 e3bc b612 ba3d
00000380: 27e7 f9bd 1624 2f3e cc0f 0bbe 60d6 59bd
00000390: 5a87 303d 228a 45be b917 043e 1a45 f1bd
000003a0: 6fc3 afbd 6c83 cfbe fd4f 0ebe 38d9 30be
000003b0: e70b f83d c548 01be 6287 913d ca7a 043d
000003c0: 0f98 87bd b41d 4abe 13ff 893d 3139 d73d
000003d0: e181 533d ed74 043e 792b 8bbd 4648 61bd
000003e0: 0d13 8fbd cb18 9fbc 03a9 4e3d 5eee e93d
000003f0: 9f86 97bd 7a30 e0bd d961 0b3e 9e5f 1a3e

mos_estimator_v1/dense/BiasAdd/ReadVariableOp/resource:0 f4 [128]
-0.027981324 0.048619915 -0.04393252 0.16178803 0.50000817 -0.019208506 -0.042026907 -0.05669988
-0.10170449 -0.020311117 -0.06654476 -0.03719264 -0.024563015 0.13552548 0.57568514 -0.010441387
-0.099028505 -0.103384346 -0.042429067 -0.061047964 -0.09012699 -0.09759187 0.04739449 0.42653254
-0.038510885 0.15045416 -0.07671866 -0.09073977 0.2334472 -0.06553279 -0.06517195 -0.031638313
0.08478551 -0.13640617 -0.049238008 0.13698043 0.14765982 -0.033427928 -0.23041457 -0.0251749
0.31108487 0.17031875 -0.05671072 -0.17271316 0.26212877 0.3171757 -0.60863215 0.22437674
-0.10856471 -0.048753574 -0.09811221 -0.049044464 -0.8014236 0.4476041 0.11467855 -0.032933403
0.2965637 -0.039207637 -0.19726126 0.22694077 -0.062035706 -0.2210861 -0.07620767 0.413452
-0.04038448 -0.058434647 -0.029446058 -0.020040398 -0.058326207 -0.0035596862 -0.051519275 -0.047421362
-0.058573645 -0.030277856 -0.051602103 0.22151756 0.26162744 -0.06477424 0.28428933 -0.073505156
0.49867424 -0.026251128 0.12826812 -0.059395608 -0.014705032 -0.013638669 -0.050696686 -0.10071985
-0.07647884 0.33653337 -0.06268433 -0.09982379 0.13699785 -0.04508538 -0.036086958 -0.04425658
0.55954415 0.25156683 -0.11406638 0.49764597 -0.10243245 -0.0923448 -0.030295594 -0.18308815
-0.05433503 -0.07188064 -0.06313827 -0.02976464 0.0 0.09263597 0.04876487 0.4253961
-0.0492112 -0.081557974 0.31897056 0.14843474 -0.028988194 -0.025434734 -0.059413623 0.29827902
-0.06510528 0.27480927 0.47210345 0.09482722 -0.093216226 -0.029323393 -0.0560932 -0.0236817
00000000: 1739 e5bc ad25 473d 96f2 33bd c3ab 253e
00000010: 8900 003f 285b 9dbc 6824 2cbd 223e 68bd
00000020: 724a d0bd 8063 a6bc 9e48 88bd 4f57 18bd
00000030: 6038 c9bc 31c7 0a3e 1a60 133f 5a12 2bbc
00000040: 75cf cabd 2cbb d3bd 1aca 2dbd 6e0d 7abd
00000050: 8094 b8bd 3fde c7bd ba20 423d 7962 da3e
00000060: 97bd 1dbd a810 1a3e ac1e 9dbd c6d5 b9bd
00000070: c80c 6f3e 0e36 86bd df78 85bd 2d97 01bd
00000080: 07a4 ad3d 0fae 0bbe cbad 49bd 9944 0c3e
00000090: 2334 173e b9eb 08bd ccf1 6bbe 983b cebc
000000a0: 8446 9f3e 0a68 2e3e 8049 68bd b8db 30be
000000b0: be35 863e da64 a23e 51cf 1bbf 04c3 653e
000000c0: 2d57 debd d4b1 47bd 0eef c8bd d9e2 48bd
000000d0: 192a 4dbf 5d2c e53e 96dc ea3d 2de5 06bd
000000e0: 33d7 973e 3098 20bd dbfe 49be 2963 683e
000000f0: 2719 7ebd 6564 62be c412 9cbd fbaf d33e
00000100: 326a 25bd 2b59 6fbd dc38 f1bc c32b a4bc
00000110: 76e7 6ebd a049 69bb e005 53bd e73c 42bd
00000120: ebea 6fbd 4409 f8bc ba5c 53bd 80d5 623e
00000130: 08f4 853e 5ba8 84bd 5f8e 913e df89 96bd
00000140: 3b52 ff3e 9b0c d7bc b858 033e cf48 73bd
00000150: 60ed 70bc b974 5fbc 54a7 4fbd 3546 cebd
00000160: f0a0 9cbd 1a4e ac3e a460 80bd 6a70 ccbd
00000170: 2a49 0c3e 73ab 38bd ebcf 13bd 6346 35bd
00000180: 493e 0f3f 5ecd 803e a29b e9bd 74cb fe3e
00000190: 1bc8 d1bd 451f bdbd 772e f8bc 767b 3bbe
000001a0: 698e 5ebd 2836 93bd a34e 81bd f9d4 f3bc
000001b0: 0000 0000 edb7 bd3d acbd 473d 85cd d93e
000001c0: af91 49bd de07 a7bd 1c50 a33e 47ff 173e
000001d0: a678 edbc 815c d0bc b35b 73bd 07b8 983e
000001e0: eb55 85bd cdb3 8c3e 8bb7 f13e c634 c23d
000001f0: 26e8 bebd 9d37 f0bc fcc1 65bd 2000 c2bc

conv2d_6/kernel:0 f4 [64, 32, 3, 3]
0.18650529 0.14552955 -0.048997477 0.1536074 -0.068883665 -0.15326531 0.22364065 -0.01976062
-0.09982174 -0.3705685 0.07508323 -0.22309954 -0.41508114 -0.017209558 -0.11360858 -0.3142943
-0.00056435494 -0.07793064 0.1595121 0.053827297 -0.044123687 0.14707655 -0.024754453 -0.07957297
0.10241494 -0.10445672 0.057996884 -0.38517776 0.16003166 -0.2278859 -0.64716464 0.059762415
-0.27547875 -0.4332105 0.11280134 -0.16721456 -0.110838376 -0.2205039 -0.1068285 0.0699811
-0.057282012 -0.07503485 -0.1298706 -0.12832284 -0.09775238 0.047575913 -0.26125872 -0.1624544
0.041344333 -0.07424881 0.040081628 -0.025435358 -0.026946208 0.21295223 -0.13648236 -0.0278157
-0.21215817 0.024935633 -0.042666305 -0.43303636 0.05987281 -0.16056795 -0.049990434 0.0083116675
-0.20812096 -0.48006207 -0.30125108 -0.1977503 -0.37759247 -0.33231708 0.049726658 -0.4603124
0.116365895 0.110621296 0.0078450795 0.13728431 -0.0013024192 0.00397523 0.009748621 0.1563467
0.055451777 0.28550076 -0.08812703 -0.3095533 -0.028204644 -0.18845217 -0.44680107 0.114844695
-0.07064817 -0.21248524 -0.13006322 0.022956556 -0.1687594 -0.03338743 0.10759957 -0.1120457
-0.57085043 -0.006760202 -0.62214464 0.11769344 -0.273487 -0.36517987 0.118861005 -0.34898695
-0.21425821 0.055444807 -0.23907037 -0.12648506 0.057110883 -0.04112731 -0.0816641 0.05820438
0.07026673 0.19006175 0.08313791 0.2798838 0.02233203 0.07078328 -0.18658312 -0.2439928
0.0075523644 -0.14465775 -0.25124535 -0.27190292 -0.05077889 -0.56272715 0.35545248 -0.09301123
-0.38592118 0.07383561 -0.0304768 -0.3648351 0.13513076 -0.041549783 -0.3384358 0.34560484
0.04362982 -0.105326094 0.17849107 0.010091896 -0.26186118 0.16389644 -0.004466643 -0.30549312
-0.16389093 -0.3458061 -0.17393762 -0.24537328 -0.2035753 -0.50335723 -0.28274345 -0.26705608
-0.59540844 0.10124703 0.15808688 -0.16004522 0.10406854 -0.023986407 0.09205039 0.2135704
0.0793597 0.14382693 0.0620933 -0.043132547 -0.42943043 0.08403556 -0.1038979 -0.50529915
-0.0919152 -0.03166573 -0.4360896 -0.1678224 0.03741048 -0.03651025 -0.03599826 0.04121435
-0.11191222 0.010723962 -0.025005288 -0.15598977 -0.008266061 -0.003674003 -0.31307533 -0.11219909
-0.058602393 -0.062282782 -0.0270606 -0.07643589 0.040325683 0.030417223 0.0008895991 0.12230436
0.03919498 0.0021243573 0.3084886 -0.04834454 -0.079245575 0.120756984 -0.13288392 -0.56019056
-0.47078767 -0.08117835 -0.23725899 -0.26278353 -0.16361353 -0.36319247 -0.46039468 0.09077243
-0.064136714 -0.106078155 0.20939714 -0.08836757 -0.17287952 0.0083248615 -0.023831688 -0.21734248
0.018446105 0.1142746 0.14252496 -0.082401164 -0.11706372 0.13258213 -0.089315265 0.020915939
0.09860313 0.102077596 -0.037312735 0.11774638 0.012047227 0.029956965 0.0048134075 0.037997592
-0.006961459 0.18668483 -0.18300831 -0.30403733 -0.31443918 0.030460054 -0.10270052 -0.22221155
-0.04914862 0.11084052 -0.4252462 -0.07048656 -0.03232345 -0.3671634 -0.27661917 -0.16097303
-0.35155752 -0.035497155 -0.07615001 -0.33184272 -0.36497518 0.09978471 0.16848262 -0.40903088
00000000: 3efb 3e3e b305 153e 94b1 48bd 424b 1d3e
00000010: e112 8dbd 95f1 1cbe 0e02 653e 06e1 a1bc
00000020: 576f ccbd 28bb bdbe 3dc5 993d 3574 64be
00000030: 8485 d4be 0ffb 8cbc 9dab e8bd 2feb a0be
00000040: 38f1 13ba 199a 9fbd 2457 233e 037a 5c3d
00000050: 0abb 34bd 3c9b 163e dac9 cabc 27f7 a2bd
00000060: edbe d13d 68ed d5bd 248e 6d3d 0536 c5be
00000070: 57df 233e ec5a 69be 95ac 25bf 6fc9 743d
00000080: 8d0b 8dbe c4cd ddbe 6404 e73d 4b3a 2bbe
00000090: 3bff e2bd c6cb 61be e7c8 dabd 4052 8f3d
000000a0: 8ba0 6abd dfab 99bd ccfc 04be 1067 03be
000000b0: 6632 c8bd f6de 423d b4c3 85be 725a 26be
000000c0: ad58 293d c30f 98bd a22c 243d d05d d0bc
000000d0: 4bbe dcbc 2610 5a3e 08c2 0bbe c0dd e3bc
000000e0: fe3f 59be d045 cc3c ddc2 2ebd f1b6 ddbe
000000f0: 313d 753d ed6b 24be c5c2 4cbd a92d 083c
00000100: a91d 55be b2ca f5be 953d 9abe 0e7f 4abe
00000110: cd53 c1be 7725 aabe 2eae 4b3d 11ae ebbe
00000120: 3e51 ee3d 6b8d e23d a688 003c 4294 0c3e
00000130: f0b5 aaba a542 823b aeb8 1f3c 5919 203e
00000140: 6721 633d 282d 923e f27b b4bd c57d 9ebe
00000150: 6d0d e7bc 9bf9 40be 1cc3 e4be b233 eb3d
00000160: fdaf 90bd bb95 59be 4b2f 05be 630f bc3c
00000170: 44cf 2cbe 42c1 08bd 2a5d dc3d 3778 e5bd
00000180: 4123 12bf af84 ddbb df44 1fbf 4209 f13d
00000190: 7d06 8cbe dbf8 babe 666d f33d 6bae b2be
000001a0: 8166 5bbe 181a 633d ddce 74be 4d85 01be
000001b0: 1aed 693d 1c75 28bd 823f a7bd b767 6e3d
000001c0: 01e8 8f3d 8c9f 423e 3544 aa3d ee4c 8f3e
000001d0: a9f1 b63c d3f6 903d a50f 3fbe 40d9 79be
000001e0: d379 f73b 2921 14be 3ba3 80be dc36 8bbe
000001f0: 86fd 4fbd e30e 10bf defd b53e ac7c bebd
00000200: 7697 c5be 2037 973d 7baa f9bc abcb babe
00000210: b85f 0a3e 1b30 2abd 7547 adbe 1ef3 b03e
00000220: 2fb5 323d 35b5 d7bd 5dc6 363e 7b58 253c
00000230: ab12 86be 78d4 273e eb5c 92bb 9869 9cbe
00000240: 06d3 27be 7f0d b1be b41c 32be 2243 7bbe
00000250: 0b76 50be 05dc 00bf c0c3 90be 93bb 88be
00000260: b06c 18bf 9a5a cf3d 87e1 213e e5e2 23be
00000270: e321 d53d 247f c4bc ea84 bc3d 33b2 5a3e
00000280: 5787 a23d 5e47 133e 8b55 7e3d c1ab 30bd
00000290: 4ede dbbe d61a ac3d 6cc8 d4bd 495b 01bf
000002a0: 093e bcbd edb3 01bd 2347 dfbe a3d9 2bbe
000002b0: bb3b 193d c68b 15bd e972 13bd 61d0 283d
000002c0: 3c32 e5bd 8fb3 2f3c e4d7 ccbc c8bb 1fbe
000002d0: 5f6e 07bc 8bc7 70bb 694b a0be a3c8 e5bd
000002e0: 1009 70bd 3b1c 7fbd 31ae ddbc 6b8a 9cbd
000002f0: 8b2c 253d 8a2d f93c fc33 693a b57a fa3d
00000300: ea8a 203d cd38 0b3b 38f2 9d3e ed04 46bd
00000310: 814b a2bd 704f f73d b912 08be a668 0fbf
00000320: 150b f1be d640 a6bd 05f4 72be 908b 86be
00000330: 4e8a 27be 5df4 b9be dab8 ebbe e5e6 b93d
00000340: 1c5a 83bd 813f d9bd 346c 563e 0efa b4bd
00000350: 5407 31be 0065 083c ac3a c3bc 078f 5ebe
00000360: 491c 973c cd08 ea3d 10f2 113e f1c1 a8bd
00000370: 1bbf efbd 9cc3 073e ecea b6bd e757 ab3c
00000380: 70f0 c93d 0f0e d13d 3dd5 18bd 0425 f13d
00000390: bb61 453c 4f68 f53c cab9 9d3b 5da3 1b3d
000003a0: f31c e4bb 4f2a 3f3e 8866 3bbe c8aa 9bbe
000003b0: 2cfe a0be 5d87 f93c a654 d2bd 6d8b 63be
000003c0: 1050 49bd 5b00 e33d dfb9 d9be 425b 90bd
000003d0: 9865 04bd d7fc bbbe 07a1 8dbe 1dd6 24be
000003e0: 59ff b3be 7765 11bd 89f4 9bbd 4ae7 a9be
000003f0: 07de babe ed5b cc3d b586 2c3e 7f6c d1be

conv2d_6/bias:0 f4 [64]
-0.4792993 -0.0024746016 0.09618795 0.12570211 0.08533124 0.42423818 0.32675755 0.13559479
0.19795986 0.053973567 0.12262948 0.15898639 0.10122796 0.027532183 0.21716405 0.32632604
0.43669438 -0.07221501 -0.15493403 0.30574223 0.04183426 0.32418337 0.44831675 -0.3025849
0.24943887 0.1702 0.18124098 -0.06977996 0.33032656 0.13400593 0.059710357 0.31914204
0.2160277 -0.2354693 0.030358348 0.12565127 0.13100448 -0.0048875287 -0.019180376 -0.4089517
-0.053003646 0.085963175 0.026035422 0.48749313 0.018224748 0.08254929 -0.03967507 0.05199011
-0.031044394 0.15846792 -0.06478986 -0.20315966 0.2263805 0.48009017 0.14919385 0.25931227
-0.02894057 0.0079147965 0.05269738 0.3248623 -0.105931334 -0.19575031 0.021574087 -0.05127983
00000000: b866 f5be ed2c 22bb 30fe c43d 0eb8 003e
00000010: 25c2 ae3d bf35 d93e c44c a73e 5cd9 0a3e
00000020: fdb5 4a3e 6313 5d3d 2a25 fb3d 54cd 223e
00000030: 9b50 cf3d 2c8b e13c 4160 5e3e 3514 a73e
00000040: 6896 df3e 77e5 93bd 07a7 1ebe 3f8a 9c3e
00000050: 675a 2b3d 5dfb a53e c689 e53e 68ec 9abe
00000060: e76c 7f3e e948 2e3e 3c97 393e cce8 8ebd
00000070: 9020 a93e da38 093e d992 743d 9666 a33e
00000080: 5e36 5d3e dd1e 71be 12b2 f83c baaa 003e
00000090: 0a26 063e 9027 a0bb 2a20 9dbc 1e62 d1be
000000a0: 5a1a 59bd 760d b03d 3d48 d53c b398 f93e
000000b0: 114c 953c 9a0f a93d 5482 22bd 95f3 543d
000000c0: d050 febc 6a45 223e 8cb0 84bd 1609 50be
000000d0: 4ad0 673e 61ce f53e 46c6 183e 94c4 843e
000000e0: c614 edbc 10ad 013c 35d9 573d 5a54 a63e
000000f0: 87f2 d8bd c572 48be 24bc b03c cd0a 52bd

mos_estimator_v1/dense/MatMul/ReadVariableOp/resource:0 f4 [64, 128]
0.105822615 -0.03799113 -0.11574771 0.10956711 0.02762492 -0.0011380268 -0.18825501 -0.039873514
0.0308526 -0.12344159 -0.15800425 -0.049380045 -0.030959614 -0.02908584 -0.17386127 -0.08626276
-0.20327517 -0.0068480675 0.18135267 0.052535314 -0.17430434 -0.21922946 0.004959513 -0.25298768
-0.17207521 0.10551026 0.11112855 -0.024063533 -0.20653832 0.09000784 0.09028449 -0.17762515
-0.10747833 -0.053264957 0.01759642 0.054359116 -0.10312312 -0.04798914 0.03191842 0.012547423
-0.044270236 -0.06764315 -0.095419325 -0.07642521 0.4362479 0.046148926 -0.5154309 -0.10542126
-0.1471871 0.07304452 -0.13446932 0.047261115 -0.20093009 -0.08906572 -0.014329755 -0.06963602
0.22155377 -0.089303605 0.23942347 -0.10031915 -0.098599866 -0.25101882 0.11218489 0.049868725
0.019369218 -0.15707222 -0.112558424 0.18644701 -0.03638329 -0.103295155 0.11954795 -0.102418095
0.106549256 -0.084637485 -0.20613998 0.1878633 0.05599321 -0.004369753 0.035146087 -0.19176632
0.010644418 -0.055376038 -0.17556103 0.13875066 0.021296877 0.14843401 0.047724623 0.038462494
-0.09946409 0.07151371 0.06991892 0.17649382 -0.08566704 -0.1402878 -0.14305978 -0.040765487
-0.039268132 -0.07139798 0.1679278 -0.023498772 0.04921414 -0.021413011 -0.22960655 0.11795841
-0.0136608435 -0.008561586 -0.066246435 0.027669039 -0.08139079 -0.42849004 -0.06403992 -0.23836164
0.08933707 -0.039648682 0.03216685 -0.3934552 -0.20209517 0.028617864 -0.02341057 -0.14429435
0.022257796 -0.39826694 -0.15855925 -0.01051081 0.15529345 -0.12657697 -0.10696462 -0.118097
-0.027161527 0.25049204 -0.002414186 -0.2973242 0.11969575 -0.1378282 -0.14430203 -0.10411624
-0.09571187 0.049915552 -0.092965044 -0.035873253 -0.17942034 0.019495944 -0.17006427 -0.1082468
-0.15046164 0.05857902 0.09476528 -0.025992487 -0.16815932 -0.19680154 0.14918295 -0.18788359
-0.21608922 -0.036181673 0.093458675 0.10512782 -0.29820305 -0.16597351 -0.2216132 -0.16598338
-0.033332545 0.08202129 0.093106754 0.08228776 -0.15015808 -0.03555307 0.23898554 -0.07241046
0.106832 0.0031138994 -0.02729619 -0.2020102 0.3865622 0.04485315 -0.2923862 -0.036375523
-0.09572606 0.11184402 0.03945634 -0.0886846 -0.2958315 -0.19627497 -0.16631013 0.01772672
-0.25417495 -0.0071695894 0.31354186 -0.25910583 -0.15413179 -0.023155294 0.029082919 0.061612267
0.10953368 0.09023271 -0.0732895 -0.16453165 0.07280796 0.07113003 0.116985515 0.04688905
-0.05912612 -0.033641007 0.10456713 0.08011195 0.032895613 -0.059432402 -0.10362357 -0.10545363
-0.08037468 -0.14676392 0.12616791 -0.090115875 -0.009988204 -0.025334565 0.03981742 0.025239691
-0.31080186 0.17356986 -0.063289694 -0.14535168 -0.19470187 -0.10217533 -0.07038487 0.11246106
0.056289006 -0.18439038 0.117687084 -0.10814437 -0.18328647 -0.013741434 0.078106344 -0.03699037
0.02968636 -0.08768267 -0.19216393 0.020012865 -0.09891456 0.15821663 -0.0040422427 -0.16827787
-0.05179679 -0.22913274 0.11229114 -0.2314628 -0.058420036 -0.04956552 -0.0061782254 0.12448617
-0.09658125 -0.22725166 -0.057396658 0.24542388 -0.09590988 -0.07911851 0.12071038 -0.11352681
00000000: 87b9 d83d 969c 1bbd 230d edbd b964 e03d
00000010: a84d e23c d829 95ba ecc5 40be 6952 23bd
00000020: 97be fc3c f2ce fcbd decb 21be bb42 4abd
00000030: 049f fdbc 6d45 eebc b008 32be 88aa b0bd
00000040: 5e27 50be c165 e0bb 84b4 393e 452f 573d
00000050: d67c 32be b07d 60be 6983 a23b 9a87 81be
00000060: 7c34 30be c315 d83d 5d97 e33d e320 c5bc
00000070: c87e 53be 0856 b83d 13e7 b83d 5ee3 35be
00000080: 991d dcbd 5b2c 5abd 5e26 903c aaa7 5e3d
00000090: 3732 d3bd 4390 44bd e4bc 023d b593 4d3c
000000a0: b554 35bd 7e88 8abd 356b c3bd d284 9cbd
000000b0: e25b df3e a806 3d3d 48f3 03bf 1ae7 d7bd
000000c0: 37b8 16be 5e98 953d 53b2 09be df94 413d
000000d0: 9ec0 4dbe 1768 b6bd 59c7 6abc 549d 8ebd
000000e0: fede 623e cfe4 b6bd 6d2b 753e 2074 cdbd
000000f0: baee c9bd 8a85 80be 31c1 e53d 2643 4c3d
00000100: 32ac 9e3c 8ad7 20be 0885 e6bd f7eb 3e3e
00000110: a506 15bd 698c d3bd 8ed5 f43d 94c0 d1bd
00000120: 7f36 da3d 6b56 adbd 5c16 53be 3d5f 403e
00000130: 2359 653d 2530 8fbb 58f5 0f3d 645e 44be
00000140: ed65 2e3c fcd1 62bd 45c6 33be a714 0e3e
00000150: ca76 ae3c 16ff 173e e57a 433d d98a 1d3d
00000160: d4b3 cbbd c875 923d a731 8f3d ccba 343e
00000170: 3372 afbd 9ba7 0fbe 437e 12be b6f9 26bd
00000180: 9fd7 20bd 1b39 92bd 44f5 2b3e 7f80 c0bc
00000190: c494 493d 576a afbc fb1d 6bbe 2e94 f13d
000001a0: bbd1 5fbc e545 0cbc 36ac 87bd 2eaa e23c
000001b0: 37b0 a6bd 0c63 dbbe 5d27 83bd 1315 74be
000001c0: 5bf6 b63d a866 22bd 63c1 033d f672 c9be
000001d0: 09f2 4ebe 0370 ea3c 86c7 bfbc e6c1 13be
000001e0: fb55 b63c a5e9 cbbe 5b5d 22be 8835 2cbc
000001f0: 3f05 1f3e 659d 01be 4410 dbbd d7dc f1bd
00000200: da81 debc 7e40 803e 5237 1ebb e13a 98be
00000210: 0c23 f53d d622 0dbe e9c3 13be e53a d5bd
00000220: 9604 c4bd 4074 4c3d 7564 bebd d5ef 12bd
00000230: f7b9 37be f5b5 9f3c 5425 2ebe 80b0 ddbd
00000240: 9e12 1abe 8ef0 6f3d 4d14 c23d 32ee d4bc
00000250: f531 2cbe 5886 49be 6ac3 183e 8e64 40be
00000260: 7e46 5dbe 3c33 14bd 4367 bf3d 414d d73d
00000270: 12ae 98be f6f4 29be 92ee 62be 8cf7 29be
00000280: b587 08bd c7fa a73d c1ae be3d 7c86 a83d
00000290: 0ac3 19be 19a0 11bd a0b8 743e ef4b 94bd
000002a0: bcca da3d 9012 4c3b 429c dfbc c3db 4ebe
000002b0: 7beb c53e f0b7 373d a5b3 95be 80fe 14bd
000002c0: 060c c4bd 7a0e e53d f99c 213d 46a0 b5bd
000002d0: 3a77 97be 4efc 48be 344d 2abe a037 913c
000002e0: 3823 82be e0ee eabb 8f88 a03e 85a9 84be
000002f0: b9d4 1dbe 2cb0 bdbc 4d3f ee3c 255d 7c3d
00000300: 3253 e03d edcb b83d ce18 96bd fc7a 28be
00000310: 571c 953d 9fac 913d 1a96 ef3d bc0e 403d
00000320: 3b2e 72bd 27cb 09bd 4b27 d63d bc11 a43d
00000330: 8dbd 063d 646f 73bd 9838 d4bd 13f8 d7bd
00000340: 7b9b a4bd 4849 16be 2932 013e ac8e b8bd
00000350: 90a5 23bc 6f8a cfbc 9717 233d 78c3 ce3c
00000360: 6c21 9fbe 4cbc 313e 079e 81bd 12d7 14be
00000370: ed5f 47be 4d41 d1bd f125 90bd fc51 e63d
00000380: 4d8f 663d d5d0 3cbe ed05 f13d cc7a ddbd
00000390: 73af 3bbe c023 61bc 38f6 9f3d 3783 17bd
000003a0: cf30 f33c f992 b3bd 9fc6 44be 05f2 a33c
000003b0: b893 cabd 8a03 223e ca74 84bb 0951 2cbe
000003c0: df28 54bd c6a1 6abe e6f8 e53d 9604 6dbe
000003d0: d949 6fbd 3705 4bbd b672 cabb 9bf2 fe3d
000003e0: 64cc c5bd a9b4 68be c218 6bbd 6650 7b3e
000003f0: 666c c4bd e308 a2bd 0137 f73d bf80 e8bd

conv2d_5/kernel:0 f4 [32, 32, 3, 3]
-0.10916051 -0.43230823 -0.08634625 0.06400725 -0.28828165 0.02588954 0.09877865 -0.12084472
-0.09539705 -0.22436167 0.122068815 0.0084739365 -0.27883556 -0.051445063 0.075116456 -0.25104335
0.02395159 -0.14900297 -0.09633558 -0.09068217 0.08654759 -0.07129492 -0.13189904 -0.05581443
-0.25936908 0.078308016 -0.005118961 -0.09000045 -0.056785557 -0.20842998 0.09572019 -0.16620402
-0.05855368 0.05975186 0.0865485 0.29440334 -0.3084748 -0.23489612 -0.06177776 -0.25743416
-0.24609633 0.05759114 -0.29671562 -0.2520986 -0.1809081 0.074836 -0.08078919 0.08071106
0.03234886 0.16401933 -0.051361613 0.15824856 -0.07599856 -0.006282507 -0.001279289 -0.22707959
-0.16264792 0.04468227 -0.22855397 -0.23470289 -0.045287717 -0.105399914 -0.23948923 -0.32428977
-0.20702691 0.020095237 -0.3440716 0.017361267 0.008440021 0.004214111 0.13500285 0.108261704
-0.09910478 0.003555676 0.3233392 -0.21153706 0.12154547 -0.008860551 -0.026506612 -0.0646973
0.025295312 -0.11342388 0.07043982 -0.05737942 -0.11053684 -0.032557756 0.014249787 -0.0390014
0.043462027 -0.04995187 0.05920058 -0.06502195 -0.60452694 0.03487134 -0.094317235 -0.2262949
0.09015683 -0.25284073 -0.23110446 -0.058606632 0.04503539 -0.21049616 -0.11043142 -0.2303151
-0.3484538 0.0037652613 -0.11638204 0.05573517 -0.1338268 0.015641522 0.18351293 -0.28054562
0.08078168 -0.05014144 0.23086694 -0.032594427 0.04499541 -0.6123017 0.0057989703 0.115850806
-0.29104614 0.0068432996 -0.13085358 -0.09047643 -0.043829493 0.124924645 -0.18946017 -0.07400653
0.026450118 -0.37566766 0.19544959 -0.22104701 0.20568144 -0.07097275 -0.23683605 0.05675609
-0.0676809 0.12758245 -0.11725951 -0.22238065 0.09683404 -0.079550125 0.11206998 -0.0019358175
0.020503473 0.033254076 -0.16570914 -0.031455114 -0.08112333 -0.2468068 0.00692028 0.07052158
-0.007849027 -0.18175893 0.10982503 0.09944466 -0.380886 -0.030758336 0.10279745 -0.1713432
-0.03533281 -0.022329962 -0.08294179 -0.25697207 0.0017682093 -0.0016768757 -0.030675719 -0.1644281
0.13360377 0.1561092 -0.023491567 0.13181058 0.09362562 0.20062225 -0.18976185 0.11937596
0.1014446 -0.13989033 -0.22032814 -0.012192928 -0.39947703 -0.24436937 -0.17721617 -0.27736232
-0.14514221 -0.09681403 0.1217826 -0.13660777 -0.3047238 -0.08179903 -0.13763927 0.150386
-0.3398835 -0.13121386 0.11111269 0.09689982 0.093858555 0.05362521 0.14736485 -0.27618483
-0.079152636 0.086780444 -0.20347898 0.041695584 -0.061337955 -0.008310493 0.03244916 0.17569278
-0.008883235 0.01094861 -0.003420966 -0.19867663 0.07733806 0.11503489 -0.12976356 -0.13949075
-0.03962852 -0.31190225 -0.1829136 -0.20805076 -0.16449688 -0.16361965 -0.27167454 -0.055111803
-0.12319086 -0.1906851 -0.013762832 -0.032662816 -0.07990242 -0.17812727 -0.06482147 -0.19672023
-0.095058635 -0.12696198 -0.23196018 -0.088413246 0.07009219 0.0066519547 -0.15996334 -0.049149696
0.08288323 -0.10237303 0.00032712612 0.026409471 0.096398756 -0.06423002 -0.33142927 0.13141264
-0.122727975 -0.09854493 0.08539837 0.045420878 -0.57347447 -0.005929434 -0.011900588 -0.84229696
00000000: 8c8f dfbd 8157 ddbe 4dd6 b0bd 3c16 833d
00000010: a799 93be 4d16 d43c 764c ca3d 707d f7bd
00000020: 875f c3bd 11bf 65be 37ff f93d 44d6 0a3c
00000030: 89c3 8ebe 0fb8 52bd a8d6 993d c188 80be
00000040: 2036 c43c 3c94 18be 974b c5bd 93b7 b9bd
00000050: dd3f b13d 1203 92bd 8b10 07be ac9d 64bd
00000060: 06cc 84be f45f a03d f5bc a7bb 2852 b8bd
00000070: f997 68bd ab6e 55be f208 c43d 6331 2abe
00000080: fcd5 6fbd 5ebe 743d 5740 b13d 09bc 963e
00000090: 69f0 9dbe 9c88 70be ad0a 7dbd 69ce 83be
000000a0: ad00 7cbe b0e4 6b3d 1ceb 97be 1113 81be
000000b0: f93f 39be 9e43 993d ce74 a5bd d74b a53d
000000c0: 3d80 043d aff4 273e 8e60 52bd e90b 223e
000000d0: 22a5 9bbd 7ddd cdbb d1ad a7ba 8d87 68be
000000e0: 2d8d 26be c204 373d 0d0a 6abe f455 70be
000000f0: 9d7f 39bd e9db d7bd aa3c 75be 4f09 a6be
00000100: ddfe 53be c49e a43c 272a b0be 3739 8e3c
00000110: 0448 0a3c 8616 8a3b 303e 0a3e 50b8 dd3d
00000120: 72f7 cabd 5806 693b b78c a53e 2c9d 58be
00000130: d5ec f83d d82b 11bc 6524 d9bc 0580 84bd
00000140: 1d38 cf3c c74a e8bd c142 903d af06 6bbd
00000150: 2461 e2bd 485b 05bd f077 693c efbf 1fbd
00000160: 3d05 323d 559a 4cbd 4f7c 723d 3a2a 85bd
00000170: 47c2 1abf 40d5 0e3d 6529 c1bd dab9 67be
00000180: 25a4 b83d 5774 81be a6a6 6cbe 820d 70bd
00000190: 0777 383d 4e8c 57be de29 e2bd b9d7 6bbe
000001a0: 8968 b2be 9ac2 763b b559 eebd 904a 643d
000001b0: e509 09be a622 803c d0ea 3b3e ada3 8fbe
000001c0: de70 a53d 1c61 4dbd 6268 6c3e bc81 05bd
000001d0: 1b4d 383d cebf 1cbf 4a05 be3b 3043 ed3d
000001e0: 0004 95be c23d e03b 7bfe 05be b54b b9bd
000001f0: 8e86 33bd 7ed8 ff3d d901 42be bc90 97bd
00000200: ebad d83c 8357 c0be f023 483e 265a 62be
00000210: 289e 523e 295a 91bd 2685 72be 1379 683d
00000220: 499c 8abd f9a4 023e c125 f0bd c1b7 63be
00000230: ed50 c63d 2deb a2bd f284 e53d 42bb fdba
00000240: e6f6 a73c 6d35 083d a8af 29be 14d7 00bd
00000250: fd23 a6bd ecba 7cbe 84c3 e23b 9e6d 903d
00000260: 3599 00bc 031f 3abe f2eb e03d a4a9 cb3d
00000270: 7d03 c3be e8f8 fbbc 7887 d23d 9874 2fbe
00000280: 23b9 10bd 53ed b6bc 63dd a9bd d891 83be
00000290: 42c3 e73a 9dca dbba a54b fbbc d75f 28be
000002a0: 6dcf 083e 17db 1f3e 6371 c0bc 5af9 063e
000002b0: cabe bf3d eb6f 4d3e ee50 42be 627b f43d
000002c0: 30c2 cf3d 693f 0fbe b39d 61be d9c4 47bc
000002d0: 4188 ccbe f73b 7abe 2878 35be 6f02 8ebe
000002e0: 29a0 14be 6f46 c6bd 2869 f93d e8e2 0bbe
000002f0: c204 9cbe 4086 a7bd 4ff1 0cbe cafe 193e
00000300: 3605 aebe ed5c 06be 0d8f e33d 6a73 c63d
00000310: ea38 c03d 1ca6 5b3d d0e6 163e 1968 8dbe
00000320: c71a a2bd f2b9 b13d cb5c 50be fdc8 2a3d
00000330: 823d 7bbd bc28 08bc 69e9 043d cfe8 333e
00000340: fd8a 11bc cc61 333c 4932 60bb e371 4bbe
00000350: 6b63 9e3d 6a97 eb3d bde0 04be aad6 0ebe
00000360: 8451 22bd a7b1 9fbe b44d 3bbe 420b 55be
00000370: df71 28be e98b 27be ed18 8bbe eabc 61bd
00000380: 7d4b fcbd f442 43be 807d 61bc 72c9 05bd
00000390: e1a3 a3bd ff66 36be 1ec1 84bd 0771 49be
000003a0: 1aae c2bd 5202 02be f886 6dbe 0112 b5bd
000003b0: 7e8c 8f3d a4f8 d93b 6ecd 23be 3151 49bd
000003c0: afbe a93d f3a8 d1bd 2082 ab39 ad58 d83c
000003d0: b66c c53d 078b 83bd 19b1 a9be 0991 063e
000003e0: ce58 fbbd edd1 c9bd 57e5 ae3d 3e0b 3a3d
000003f0: 39cf 12bf b34b c2bb affa 42bc c6a0 57bf

conv2d_5/bias:0 f4 [32]
0.36293048 0.30463505 -0.23097008 0.24766758 0.12589183 -0.17384458 0.14340514 0.30387583
0.27330214 0.51469177 0.15807627 0.123864174 -0.31204903 0.29674596 0.32114264 0.19637766
0.19677071 -0.2236623 0.2967475 -0.01645676 -0.12539075 0.09427023 0.07077316 0.03783507
0.24799664 0.08879039 -0.26864672 0.2813731 0.30923036 0.40984562 0.09356098 0.16011491
00000000: 06d2 b93e 20f9 9b3e 6c83 6cbe 929c 7d3e
00000010: cae9 003e 5004 32be ccd8 123e 9d95 9b3e
00000020: 42ee 8b3e d7c2 033f bfde 213e 80ac fd3d
00000030: e4c4 9fbe 16ef 973e cf6c a43e 3a17 493e
00000040: 437e 493e bb07 65be 4aef 973e 54d0 86bc
00000050: 6f66 00be c010 c13d 85f1 903d f2f8 1a3d
00000060: d5f2 7d3e bcd7 b53d 108c 89be 2310 903e
00000070: 7153 9e3e 49d7 d13e e69c bf3d 2af5 233e

conv2d_4/kernel:0 f4 [32, 32, 3, 3]
-0.35187024 0.13062811 0.2521265 -0.25655702 0.13724904 0.07871371 -0.6051533 0.020920625
0.034431703 0.11206954 -0.037121065 -0.006741325 -0.07300194 0.035176013 0.109942585 0.07579658
-0.24674582 -0.109613016 0.0042828834 -0.13302594 -0.11276539 -0.045507032 -0.08444629 0.00922177
0.03749469 0.14000954 0.037007857 0.2084639 -0.081114754 0.16889645 0.11584742 0.043728422
0.0033374962 -0.11385202 -0.04350787 -0.17573228 0.07028866 -0.04143992 -0.07193446 -0.052095987
0.06924914 0.07362778 -0.08523209 -0.23372616 -0.13622929 0.140962 0.08158454 -0.070322804
-0.031513352 0.044318788 0.16224757 -0.18772234 -0.101812914 0.018407812 -0.042289857 -0.010830008
-0.01789076 -0.17416541 0.21940455 0.008434077 0.038705055 -0.28147545 0.038567398 -0.07362603
0.16549763 0.14104705 0.19562541 0.22405162 0.32682976 0.22234784 0.017688537 -0.019168573
-0.24481608 -0.21508731 -0.3196395 -0.018695535 0.033766344 -0.27398735 0.12360674 0.15316856
0.24256076 -0.05248314 0.14016214 0.029225362 -0.17532676 -0.12895411 -0.00034260587 -0.1467137
0.0035457022 -0.0044107838 0.036192693 -0.07416833 0.20684253 -0.052939303 -0.10448472 0.29367337
0.24257062 0.020947613 0.047437843 -0.13998088 -0.12502898 -0.08942145 -0.057152804 0.28688037
0.05286319 -0.4683349 -0.20130098 -0.1394762 0.30975905 -0.18715799 -0.026674109 0.001240994
-0.40318942 0.03555327 -0.05336843 -0.48125586 -0.4056196 -0.021150606 -0.18314725 -0.037170906
-0.35055086 -0.21858859 -0.030239338 -0.21890865 -0.17148215 -0.011041678 0.101684146 -0.12491475
-0.15297985 -0.09471533 -0.08331808 -0.06649604 0.15399916 -0.10264978 0.026514195 0.07028945
-0.48300037 0.0383271 -0.21451093 -0.070828445 -0.07752776 0.122003235 -0.08057076 -0.17582802
0.2430447 0.3915675 0.11624496 -0.15069008 -0.19003832 0.087184116 -0.042629153 -0.10316945
-0.01764915 -0.16566393 0.026700204 -0.07582899 0.07910862 -0.13320349 -0.17159595 0.07834505
-0.034910806 -0.45110908 -0.51047325 0.04175002 0.088413924 -0.1887023 0.14175087 -0.040032443
-0.09068075 0.10331068 0.00059675146 -0.10848028 -0.3649921 -0.037834708 -0.042659555 -0.19176772
-0.09058845 0.17814755 0.124054596 0.28565633 -0.07546794 -0.43863556 -0.10892125 -0.19569053
-0.21913528 -0.19329697 0.0018888634 -0.32462555 -0.23895009 0.03891101 -0.12366392 -0.26188475
-0.00941106 -0.3911234 -0.0063470313 -0.012168422 -0.3167691 0.0675178 0.00433939 -0.015997525
-0.090109505 -0.096292906 -0.29464298 -0.24175973 0.06786758 0.09051169 -0.074324794 -0.29043633
-0.17400682 -0.0036527112 -0.27218798 -0.23154399 0.09611477 -0.444911 -0.4655597 0.018995674
0.10961743 -0.030608794 0.018981058 -0.059063565 -0.09680016 0.038835112 -0.11296752 -0.008232774
0.14973797 -0.046351094 -0.029689867 -0.07053929 -0.106693484 0.09217545 -0.21414691 -0.12338466
0.025019696 0.17007847 0.11424662 0.17673734 -0.2440247 0.14731851 0.068190195 -0.056230422
0.10573167 0.10607904 -0.0023415072 -0.11705738 0.18119158 -0.19435392 -0.05486276 0.14929725
-0.29789123 -0.18568121 0.067831464 -0.23879267 0.13882354 -0.3346911 0.31393987 0.16433752
00000000: 5628 b4be 60c3 053e b916 813e 715b 83be
00000010: 038b 0c3e a734 a13d 54eb 1abf bb61 ab3c
00000020: 4208 0d3d b784 e53d 420c 18bd 55e6 dcbb
00000030: 0b82 95bd b914 103d 9429 e13d 3d3b 9b3d
00000040: f0aa 7cbe ca7c e0bd 6e57 8c3b f437 08be
00000050: 8af1 e6bd 9565 3abd 2df2 acbd e816 173c
00000060: 0894 193d a95e 0f3e 8d95 173d 9077 553e
00000070: 7e1f a6bd 31f3 2c3e 6a41 ed3d 931c 333d
00000080: e5b9 5a3b 3f2b e9bd 4f35 32bd 2af3 33be
00000090: 80f3 8f3d e8bc 29bd 6052 93bd 9a62 55bd
000000a0: 7ed2 8d3d 29ca 963d 298e aebd e955 6fbe
000000b0: b17f 0bbe 5858 103e cc15 a73d 6705 90bd
000000c0: 2514 01bd 9e87 353d 3a24 263e 493a 40be
000000d0: 4a83 d0bd fbcb 963c 2138 2dbd 5970 31bc
000000e0: a58f 92bc 6b58 32be 96ab 603e 152f 0a3c
000000f0: 3189 1e3d 8d1d 90be d9f8 1d3d 3ec9 96bd
00000100: 3678 293e a36e 103e 0752 483e ca6d 653e
00000110: 3b56 a73e 27af 633e 8de7 903c 6907 9dbc
00000120: 11b1 7abe d93f 5cbe caa7 a3be 6127 99bc
00000130: 944e 0a3d 1248 8cbe 8825 fd3d 38d8 1c3e
00000140: d961 783e 90f8 56bd aa86 0f3e 076a ef3c
00000150: dc88 33be 8c0c 04be c89f b3b9 1e3c 16be
00000160: 035f 683b 5688 90bb ca3e 143d 91e5 97bd
00000170: 87ce 533e e2d6 58bd 16fc d5bd 5b5c 963e
00000180: 6f64 783e 549a ab3c 2f4e 423d 2657 0fbe
00000190: 9907 00be 9822 b7bd 0f19 6abd fce1 923e
000001a0: 1387 583d 98c9 efbe d821 4ebe d9d2 0ebe
000001b0: bd98 9e3e 58a6 3fbe a983 dabc d9a8 a23a
000001c0: d86e cebe 4ea0 113d db98 5abd 2b67 f6be
000001d0: 5fad cfbe 0944 adbc f48a 3bbe 8540 18bd
000001e0: 677b b3be b0d5 5fbe 7db8 f7bc 9729 60be
000001f0: 0499 2fbe 27e8 34bc c73f d03d 4ed3 ffbd
00000200: c0a6 1cbe 1cfa c1bd aba2 aabd 132f 88bd
00000210: f5b1 1d3e 0c3a d2bd 4c34 d93c eaf3 8f3d
00000220: d34b f7be e1fc 1c3d c1a8 5bbe 810e 91bd
00000230: e0c6 9ebd d5dc f93d 4802 a5bd 430c 34be
00000240: b6e0 783e 897b c83e d611 ee3d 804e 1abe
00000250: 6899 42be 968d b23d e89b 2ebd 814a d3bd
00000260: f394 90bc cea3 29be 63ba da3c 3b4c 9bbd
00000270: b303 a23d 7f66 08be d9b6 2fbe 5f73 a03d
00000280: a2fe 0ebd c5f7 e6be 60ae 02bf 1202 2b3d
00000290: 5c12 b53d 2d3b 41be 2427 113e 0ff9 23bd
000002a0: d4b6 b9bd 8d94 d33d 506f 1c3a e92a debd
000002b0: 3fe0 babe 91f8 1abd c9bb 2ebd c25e 44be
000002c0: 7086 b9bd 506c 363e 5610 fe3d 8c41 923e
000002d0: ef8e 9abd d794 e0be 1b12 dfbd 1963 48be
000002e0: 0065 60be a4ef 45be bd93 f73a 5235 a6be
000002f0: 55af 74be 2761 1f3d 8243 fdbd c215 86be
00000300: d930 1abc 5441 c8be c2fa cfbb 105e 47bc
00000310: 8f2f a2be c646 8a3d 7131 8e3b 3e0d 83bc
00000320: 558b b8bd 3735 c5bd 72db 96be dd8f 77be
00000330: 28fe 8a3d 315e b93d 9937 98bd 12b4 94be
00000340: d82e 32be 5362 6fbb 395c 8bbe de19 6dbe
00000350: d2d7 c43d 60cb e3be d75d eebe d19c 9b3c
00000360: 1a7f e03d 4bbf fabc 2a7e 9b3c a3ec 71bd
00000370: 2a3f c6bd 9111 1f3d 845b e7bd c2e2 06bc
00000380: e954 193e a5da 3dbd 2a38 f3bc e776 90bd
00000390: 1d82 dabd 7bc6 bc3d 5449 5bbe 19b1 fcbd
000003a0: 1bf6 cc3c 0d29 2e3e 22fa e93d a2fa 343e
000003b0: 9ce1 79be aada 163e 4da7 8b3d df51 66bd
000003c0: d989 d83d f83f d93d f973 19bb c8bb efbd
000003d0: 498a 393e b704 47be c6b7 60bd 61e1 183e
000003e0: 3385 98be 3723 3ebe 39eb 8a3d 1186 74be
000003f0: c227 0e3e a25c abbe babc a03e 1848 283e

conv2d_4/bias:0 f4 [32]
-0.31030646 0.022803755 -0.3483022 -0.012782492 0.26948553 -0.009565087 0.14962809 -0.07606454
-0.24738614 0.06798647 -0.018297415 -0.023899717 -0.039856844 0.046013225 0.052288648 0.10473801
-0.2047887 0.019828374 0.05950578 0.20240624 -0.23480095 0.104777746 0.2585172 0.042629164
-0.43162844 0.1819191 0.099264614 -0.05554935 0.05735367 0.034151442 -0.24673449 -0.44186252
00000000: 7de0 9ebe f1ce ba3c aa54 b2be a86d 51bc
00000010: 02fa 893e e2b6 1cbc 1b38 193e bac7 9bbd
00000020: cb52 7dbe 7e3c 8b3d 76e4 95bc 57c9 c3bc
00000030: ee40 23bd 5d78 3c3d 9f2c 563d e280 d63d
00000040: 21b4 51be 1d6f a23c 55bc 733d 9543 4f3e
00000050: a96f 70be b795 d63d 5e5c 843e eb9b 2e3d
00000060: 67fe dcbe 0049 3a3e 3f4b cb3d b787 63bd
00000070: afeb 6a3d 62e2 0b3d f7a7 7cbe ce3b e2be

conv2d_3/kernel:0 f4 [32, 64, 3, 3]
0.1057557 -0.026569525 -0.2868783 0.087256 0.030376215 -0.21124104 0.20286086 0.087795906
0.040621154 -0.26914182 -0.124180324 -0.1046831 -0.21225439 -0.07808347 -0.1067182 -0.09165909
-0.18004623 -0.17043193 -0.0035582937 -0.022925254 0.26804554 -0.19163045 -0.03497553 0.08740788
-0.04615817 -0.15991805 0.22402155 -0.54848987 0.18621479 0.28366092 -0.353799 0.15648228
0.16768138 -0.32136104 0.27072436 0.22926295 -0.39458686 0.092235886 -0.29319182 -0.23273785
-0.021699496 -0.08037449 -0.12643456 0.15255885 -0.18309583 -0.010818982 -0.1045533 -0.3523433
-0.3289848 -0.35401064 -0.38987905 -0.41867605 -0.3623844 -0.12779284 -0.13094766 -0.19063915
-0.2478048 -0.11200823 -0.140204 -0.5364251 -0.060623225 -0.1880981 -0.6742359 0.016246589
0.004682066 -0.013464922 0.05926184 -0.057111513 0.07011077 0.08178524 -0.00049619866 0.09100747
-0.26546776 0.15423492 0.12963678 -0.5086167 -0.13806807 -0.14589052 -0.4455895 -0.1111911
-0.2491736 -0.1089411 0.17704746 0.057868443 -0.04061185 -0.14460635 -0.060462102 -0.0561962
-0.22100021 -0.3630327 -0.01161273 0.045432627 -0.013758293 -0.11943315 -0.03118582 0.12591632
-0.12788045 0.073917694 -0.035768382 0.0065838294 -0.25585014 -0.084970005 -0.040202755 -0.23126745
-0.053679667 -0.19295087 -0.21665709 -0.23321904 0.12731154 -0.010927244 -0.12522298 0.17947496
0.020884505 -0.11395951 0.07190947 -0.12724091 -0.22893484 0.322506 0.011203089 -0.125671
0.3510353 0.07801284 -0.29305112 0.2828222 -0.08589028 -0.36288938 0.15452743 0.12174519
0.20530427 -0.06487807 0.102965966 0.07641231 -0.11467339 0.03561033 -0.12438117 -0.06919615
-0.29786655 -0.1172095 -0.43180034 -0.31039694 -0.19283473 -0.3883269 -0.28046632 -0.0038280175
-0.06697912 -0.17724498 -0.0682155 -0.17376767 0.12968811 -0.09380626 -0.13777383 0.07414335
-0.035833415 -0.05329946 -0.01173106 -0.21005346 0.0055233957 0.20433997 -0.02599947 -0.007783556
-0.013390474 0.08631819 0.013447642 -0.15199478 0.019391866 0.049033675 0.02293334 -0.018203583
-0.037206877 -0.10078637 0.11501269 -0.007509941 -0.11965034 -0.16583161 0.030097729 -0.11008646
-0.19659083 -0.15042569 0.13690174 -0.33329093 -0.018215332 -0.013049567 0.07973918 -0.116194345
-0.064814135 0.08263185 0.13882989 0.022003809 0.14565772 -0.09413656 0.004496859 -0.5842165
-0.01856119 0.054439403 -0.3881249 0.06736272 0.07592046 -0.3096371 -0.010101529 -0.25693157
0.028648362 0.045329705 -0.029793235 0.3850824 0.049511727 0.12141503 0.06872582 -0.21609782
-0.07306377 -0.22054325 -0.6471947 -0.099932425 0.11303718 -0.550622 -0.47626153 -0.24116646
-0.14458235 -0.0312689 -0.11426186 -0.04344047 0.04390601 0.011311145 -0.14312954 0.03106766
0.24391793 -0.33824882 -0.32265383 -0.02257639 -0.35195518 -0.17570934 0.029940423 -0.23862351
0.12790273 0.02943924 0.17228906 -0.07343767 -0.011291944 0.18027142 -0.09551647 -0.13216746
0.028747628 -0.036677193 -0.06354063 0.008195421 0.038190622 0.029027488 0.12727271 0.026560144
0.06918553 0.0689348 -0.29502818 -0.01824807 0.105197564 0.010922636 -0.26851794 0.16317956
00000000: 7296 d83d 55a8 d9bc b6e1 92be 46b3 b23d
00000010: 8ad7 f83c 924f 58be c2ba 4f3e 57ce b33d
00000020: 5e62 263d f5cc 89be 4152 febd 1864 d6bd
00000030: 3759 59be 3aea 9fbd 128f dabd c3b7 bbbd
00000040: 0a5e 38be b585 2ebe 4332 69bb becd bbbc
00000050: 443d 893e c63a 44be 8042 0fbd e702 b33d
00000060: 5910 3dbd 8fc1 23be e865 653e d569 0cbf
00000070: 17af 3e3e 013c 913e 2425 b5be e43c 203e
00000080: abb4 2b3e 6f89 a4be 629c 8a3e e8c3 6a3e
00000090: 4a07 cabe 2be6 bc3d 3d1d 96be d552 6ebe
000000a0: 24c3 b1bc 619b a4bd 1078 01be 6338 1c3e
000000b0: 797d 3bbe 1942 31bc 0a20 d6bd 5766 b4be
000000c0: b270 a8be e240 b5be 3a9e c7be b55c d6be
000000d0: 738a b9be 20dc 02be 2517 06be e936 43be
000000e0: 8bc0 7dbe 9264 e5bd a391 0fbe 2853 09bf
000000f0: 0f50 78bd ca9c 40be b99a 2cbf 9117 853c
00000100: 046c 993b fa9b 5cbc 8bbc 723d c3ed 69bd
00000110: 3c96 8f3d 057f a73d 5413 02ba 2062 ba3d
00000120: 64eb 87be c2ef 1d3e 81bf 043e b434 02bf
00000130: b761 0dbe 5364 15be 4f24 e4be 29b8 e3bd
00000140: 5d27 7fbe 831c dfbd ee4b 353e 7607 6d3d
00000150: 9c58 26bd b013 14be 1ca7 77bd fd2d 66bd
00000160: e14d 62be 6cdf b9be 5243 3ebc 9017 3a3d
00000170: 776a 61bc 5e99 f4bd 6879 ffbc 35f0 003e
00000180: 18f3 02be 2962 973d de81 12bd 2abd d73b
00000190: cafe 82be c104 aebd a5ab 24bd 60d1 6cbe
000001a0: 36df 5bbd ea94 45be 5bdb 5dbe f9d0 6ebe
000001b0: f55d 023e 2f08 33bc 743a 00be 49c8 373e
000001c0: fb15 ab3c 9b63 e9bd 4645 933d 714b 02be
000001d0: e56d 6abe 821f a53e 298d 373c e6af 00be
000001e0: e6ba b33e 32c5 9f3d cc0a 96be 12ce 903e
000001f0: 3ee7 afbd a3cc b9be 703c 1e3e 8b55 f93d
00000200: 483b 523e cbde 84bd d2df d23d 0f7e 9c3d
00000210: e2d9 eabd 23dc 113d 8ebb febd b6b6 8dbd
00000220: f781 98be 890b f0bd ef14 ddbe 59ec 9ebe
00000230: 7876 45be c9d2 c6be 4899 8fbe 7adf 7abb
00000240: 592c 89bd b57f 35be 91b4 8bbd 27f0 31be
00000250: f6cc 043e 7f1d c0bd 9514 0dbe 78d8 973d
00000260: 0fc6 12bd 8950 5abd a233 40bc 4118 57be
00000270: 9afd b43b 7f3e 513e d7fc d4bc 330d ffbb
00000280: b863 5bbc 97c7 b03d 8053 5c3c 85a4 1bbe
00000290: b1db 9e3c 89d7 483d b3de bb3c ae1f 95bc
000002a0: 3d66 18bd 1669 cebd c68b eb3d f315 f6bb
000002b0: 3d0b f5bd c3cf 29be 838f f63c 0375 e1bd
000002c0: 1b4f 49be 3109 1abe f82f 0c3e 1ca5 aabe
000002d0: 5238 95bc dacd 55bc 4c4e a33d 4df7 edbd
000002e0: 46bd 84bd e33a a93d 6c29 0e3e 5541 b43c
000002f0: 4c27 153e abca c0bd 635a 933b 368f 15bf
00000300: a30d 98bc dafb 5e3d 4fb8 c6be 77f5 893d
00000310: 307c 9b3d c188 9ebe e280 25bc 898c 83be
00000320: f8af ea3c a4ab 393d f110 f4bc 8529 c53e
00000330: cfcc 4a3d 71a8 f83d 1fc0 8c3d bf48 5dbe
00000340: 75a2 95bd 17d6 61be 8dae 25bf 5fa9 ccbd
00000350: 0980 e73d 90f5 0cbf 8dd8 f3be 57f4 76be
00000360: 650d 14be d113 00bd 1f02 eabd a2ee 31bd
00000370: cad6 333d 6152 393c 8d90 12be 9b81 fe3c
00000380: 9fc5 793e f32e adbe e232 a5be 1ff2 b8bc
00000390: 7833 b4be 26ed 33be 9e45 f53c b959 74be
000003a0: eff8 023e 902a f13c 8b6c 303e 7d66 96bd
000003b0: d901 39bc 1299 383e 249e c3bd e856 07be
000003c0: 2580 eb3c d33a 16bd 9721 82bd 1646 063c
000003d0: c56d 1c3d 0ecb ed3c c753 023e a994 d93c
000003e0: 25b1 8d3d b02d 8d3d ef0d 97be fa7c 95bc
000003f0: d271 d73d dbf4 323c 2f7b 89be 8b18 273e
